week1/model_pytorch_infrared.pth (torch, 20232 bytes, 3 tensors)

model.0.weight f4 [128, 33]
0	0x3cbf57c0	0.023357272
1	0x3e2e2812	0.17007473
2	0x3b4b7580	0.0031045377
3	0xbd3baae4	-0.04581727
4	0xbdd58da2	-0.10427405
5	0x3da11988	0.07866198
6	0x3d0a3de0	0.033750415
7	0xbc3d7680	-0.011563897
8	0xbd36cbc0	-0.044627905
9	0x3c08e3f0	0.008355126
10	0xbdb8e042	-0.09027149
11	0x3e27d4d8	0.16389787
12	0x3e0754f8	0.13216007
13	0x3d81119e	0.06302188
14	0x3ddae624	0.10688427
15	0x3e20dcf2	0.15709284
16	0x3b4fdd00	0.003171742
17	0xbd835ffd	-0.06414793
18	0x3d92bcc6	0.07164912
19	0xbe0182ec	-0.12647599
20	0xbe014d02	-0.12627032
21	0xbdc1c73a	-0.094618276
22	0xbe0af3c6	-0.13569555
23	0xbce5d428	-0.028055266
24	0xbd61fe62	-0.05517424
25	0x3ccda830	0.025104612
26	0xbceb5ca0	-0.02873069
27	0x3d712894	0.05887659
28	0xbde465af	-0.11152207
29	0x3dc50544	0.09620145
30	0x3c382890	0.01124014
31	0xbdc66122	-0.09686495
32	0xbdf7e7da	-0.12104769
33	0xbdd8430e	-0.10559665
34	0xbd9f9022	-0.07791163
35	0x3dc2c7f8	0.09510797
36	0x3cf2483d	0.029575462
37	0xbdfbad08	-0.122888625
38	0x3db4bf1f	0.08825516
39	0xbe66abb6	-0.2252644
40	0x3d705e6a	0.05868379
41	0xbdc48138	-0.09594959
42	0xbd322d16	-0.04350003
43	0xbc88147d	-0.016611332
44	0x3d59ec24	0.053203717
45	0x3d896ae9	0.067098446
46	0x3d84eb74	0.064902216
47	0xbd82cd6e	-0.06386839
48	0xbe5952ac	-0.21222943
49	0xbd9bda0b	-0.07609948
50	0x3a1f2e12	0.00060722337
51	0xbdecec03	-0.11568453
52	0x3d2989a0	0.041391015
53	0xbdbbf6c2	-0.09177925
54	0x3ca13708	0.019679561
55	0xbe09d73d	-0.13461013
56	0x3d44fdc3	0.04809357
57	0xbe234268	-0.159433
58	0xbe04b6b6	-0.12960324
59	0xbe1ae8e1	-0.15127899
60	0xbdcef19c	-0.10104677
61	0xbc38fdd2	-0.011290984
62	0xbe3afbae	-0.1826007
63	0xbd18c833	-0.0373003
64	0xbe1634b8	-0.14668548
65	0xbd97275b	-0.07380553
66	0xbe1c71c4	-0.15277773
67	0x3d91a5ef	0.071117274
68	0xbe2f81b5	-0.17139323
69	0xbd34443f	-0.044010397
70	0xbe26874b	-0.16262548
71	0x3dd7c77c	0.105360955
72	0x3cc55056	0.024086159
73	0xbd8ab51e	-0.067728266
74	0xbe1109ad	-0.14163847
75	0x3cc34fbc	0.023841731
76	0x3d32cd1c	0.04365264
77	0x3de30aae	0.11086021
78	0x3e335893	0.17514257
79	0xbe078e92	-0.1323798
80	0x3e203855	0.15646489
81	0xbb59a41d	-0.0033209391
82	0xbba0c7fe	-0.0049066534
83	0x3e06dded	0.13170595
84	0xbd89a41d	-0.06720755
85	0x3df052c6	0.11734538
86	0xbdc99299	-0.098424144
87	0x3e01b1ce	0.12665483
88	0x3e448279	0.19190396
89	0x3d70d9ca	0.05880145
90	0x3e24b501	0.16084673
91	0x3e2598db	0.16171591
92	0x3e03d2d9	0.12873401
93	0x3d6fabba	0.05851338
94	0xbd9cce55	-0.07656542
95	0xbd24e532	-0.04025764
96	0x3dde324d	0.10849438
97	0x3db70584	0.08936599
98	0x3e4315f9	0.1905135
99	0xbd665696	-0.05623492
100	0xbdae4d96	-0.08510892
101	0x3d604eb8	0.054762572
102	0xbc975458	-0.018472835
103	0x3de26f84	0.11056426
104	0x3e1c5c0a	0.15269485
105	0xbdc59d03	-0.09649088
106	0xbdf94aea	-0.12172492
107	0x3d322cb4	0.043499663
108	0xbe16eb24	-0.14738137
109	0xbe291d99	-0.16515197
110	0x3da4d3f4	0.08048239
111	0xbe08eb50	-0.13371015
112	0x3c0162b0	0.007897064
113	0x3caa5ea0	0.020797074
114	0x3cb537b0	0.02212128
115	0x3cc7f908	0.02441074
116	0xbdac26c3	-0.08405831
117	0x3db28e6c	0.08718571
118	0xbde0cf37	-0.10977023
119	0x3e0c5be0	0.13706923
120	0xbdff3b02	-0.12462427
121	0x3d5d5f50	0.054045975
122	0xbe27c660	-0.16384268
123	0xbdbc116c	-0.091830105
124	0xbd99688d	-0.074906446
125	0xbd4f41ac	-0.05059974
126	0xbdf066d7	-0.11738365
127	0x3c25c820	0.010118514
128	0xbd8e255b	-0.06940719
129	0x3d14b520	0.036305547
130	0x3e1527b4	0.14565927
131	0x3dabdfec	0.08392319
132	0xbc8327f8	-0.01601027
133	0xba9c5b80	-0.0011929125
134	0xbd78ee4e	-0.06077414
135	0x3e1808da	0.14847127
136	0xbdb1ca6f	-0.08681189
137	0xbd6345b8	-0.05548641
138	0xbb884900	-0.004159093
139	0x3de0fe3c	0.10985991
140	0x3d911ff8	0.07086176
141	0xbe174ef5	-0.14776213
142	0xbe31532f	-0.17316888
143	0xbe1442df	-0.14478634
144	0x3e160d0a	0.14653412
145	0xbcadb270	-0.02120325
146	0x3e15fed6	0.14647993
147	0xbe306be8	-0.17228663
148	0x3e0402d6	0.12891707
149	0x3c88f498	0.016718194
150	0x3dd164e0	0.102243185
151	0xbc95e9d0	-0.018299967
152	0xbde38e57	-0.111111335
153	0x3e245366	0.16047439
154	0xbe2b6621	-0.16738178
155	0xbcef28a0	-0.029194176
156	0xbd35e758	-0.04441008
157	0x3d2d6224	0.042329922
158	0xbe054c1b	-0.13017313
159	0x3dba72cc	0.09103927
160	0x3d5c07b8	0.0537183
161	0x3e145f30	0.14489436
162	0xbdad8be8	-0.084739506
163	0xbe0019f8	-0.12509906
164	0xbdc92997	-0.09822386
165	0xbe812af9	-0.25228098
166	0x3d3f3e88	0.046690494
167	0xbc98927c	-0.018624537
168	0x3e0a53df	0.13508557
169	0x3d7f0763	0.062262904
170	0x3c8d84b5	0.017275194
171	0xbe783553	-0.24239092
172	0x3e1bcb5c	0.15214294
173	0x3e122004	0.14270025
174	0x3e3639b2	0.17795447
175	0x3da078a2	0.07835509
176	0xbd82881c	-0.06373617
177	0xbdb43434	-0.087990195
178	0xbd90502b	-0.07046541
179	0xbd3f0deb	-0.046644133
180	0xbe10f5c9	-0.1415626
181	0x3d86c85d	0.06581185
182	0xbdf3619b	-0.11883851
183	0xbdc20158	-0.094729125
184	0xbd9dff94	-0.07714763
185	0x3e06a1d0	0.13147664
186	0x3e28df51	0.16491438
187	0x3de77233	0.11301079
188	0x3e16d5a5	0.14729936
189	0x3c694e56	0.014239868
190	0xbd86ece1	-0.0658815
191	0x3e148203	0.1450272
192	0xbe22ba7a	-0.15891448
193	0x3d757366	0.059924506
194	0x3e0ee5fc	0.1395492
195	0x3df83941	0.12120295
196	0x3c6ab9e7	0.014326549
197	0xbcae230c	-0.021256946
198	0x3e036902	0.12833026
199	0x3c319470	0.010838613
200	0xbd50fb86	-0.05102112
201	0x3e249814	0.16073638
202	0x3d9d3064	0.076752454
203	0x3e1b451e	0.15163085
204	0x3de23558	0.11045331
205	0xbdee036c	-0.116217464
206	0xbdf5c1a2	-0.11999823
207	0xbcdb9860	-0.026806056
208	0xbdc1f96a	-0.094714
209	0xbc4d0c50	-0.012515143
210	0xbdebc614	-0.1151239
211	0x3ce7ce58	0.028296635
212	0x3b61d1c0	0.0034457296
213	0xbe3172c6	-0.17328939
214	0xbe24865d	-0.1606688
215	0x3dbe73bc	0.09299418
216	0x3c1334e0	0.008984774
217	0xbdeae32b	-0.1146911
218	0xbca33e78	-0.019927248
219	0xbdbe60e2	-0.09295823
220	0x3c848858	0.016178295
221	0xbd86c766	-0.06581001
222	0xbe155c94	-0.14586097
223	0xbd9465d9	-0.072459884
224	0xbda77352	-0.081762925
225	0x3e1dd364	0.1541267
226	0x3e147734	0.14498597
227	0x3dfde830	0.12397802
228	0x3d4cf238	0.050035685
229	0x3d4275b0	0.047475517
230	0xbe28b694	-0.16475898
231	0xbdf556a8	-0.11979419
232	0x3dbcb2c1	0.09213782
233	0xbd3903b5	-0.04516955
234	0x3de24cac	0.1104978
235	0xbc9359ff	-0.01798725
236	0x3db80bcd	0.08986626
237	0x3dd2a9ef	0.102863185
238	0xbe470dcf	-0.19438861
239	0x3daf447f	0.085579865
240	0x3ded1407	0.115760855
241	0xbd0d7236	-0.03453275
242	0xbc875e4f	-0.016524462
243	0xbd3a9577	-0.045552697
244	0x3d3e3501	0.046437267
245	0xbd19995d	-0.037499774
246	0x3d47a561	0.048741702
247	0x3d3d96d5	0.046286423
248	0x3d1a66ba	0.037695624
249	0xbd07a474	-0.03311582
250	0xbd85c03f	-0.06530809
251	0x3d43a6e3	0.047766577
252	0x3dde0fe9	0.10842878
253	0xbe01f9e0	-0.12692976
254	0x3c0fe383	0.00878227
255	0xbe1132bc	-0.1417951

model.0.bias f4 [128]
0	0x3d4d4900	0.050118446
1	0xbe51de7c	-0.20495027
2	0x3e468da2	0.19389966
3	0x3d5751a0	0.052568078
4	0x3e2ad33c	0.16682142
5	0xbccd9366	-0.0250947
6	0x3e306eb2	0.17229727
7	0xbe5116ff	-0.20418929
8	0xbd57798c	-0.05260615
9	0xbe3ace9b	-0.18242876
10	0xbd627d3d	-0.055295218
11	0x3d3c38e0	0.045952678
12	0xbdc8f7bd	-0.09812877
13	0xbc6b0c10	-0.014346138
14	0x3d206ac4	0.03916432
15	0x3a605e29	0.0008558953
16	0xbe34ca54	-0.17655307
17	0xbe385634	-0.18001634
18	0x3df78766	0.12086372
19	0x3e02a5ec	0.12758607
20	0xbd0b5eb4	-0.034025863
21	0x3e0060c9	0.1253692
22	0xbd756896	-0.059914194
23	0x3dcd73b8	0.10031837
24	0xbdfbfe5f	-0.12304377
25	0xbcbff607	-0.023432745
26	0xbe2b134a	-0.16706577
27	0xbe4dc4ec	-0.20094651
28	0xbc1c506b	-0.0095406575
29	0x3e20d06a	0.15704504
30	0x3e0d4a20	0.13797808
31	0x3c997028	0.018730238
32	0x3d2a59e9	0.04158965
33	0xbe01e9f8	-0.12686908
34	0xbda51950	-0.080614686
35	0xbd09566e	-0.03352969
36	0xbdf503f5	-0.11963645
37	0xbdc9c9d4	-0.09852949
38	0x3ca207be	0.019779082
39	0xbdde5fa1	-0.108580835
40	0xbc312e00	-0.01081419
41	0x3c999150	0.018746048
42	0xbdec6f48	-0.11544663
43	0xbdae8949	-0.08522279
44	0x3e0cf709	0.13766111
45	0x3c4de72e	0.012567325
46	0x3dd3ca9c	0.10341379
47	0x3d469b54	0.048487976
48	0xbdb5cdc9	-0.08877141
49	0x3cdffba8	0.027341679
50	0xbe4b6873	-0.19864063
51	0xbe1910c7	-0.14947806
52	0x3e150a7c	0.1455478
53	0xbe2fd0cf	-0.17169498
54	0xbd962af2	-0.0733241
55	0xbda6423c	-0.08118102
56	0x3de7a2ae	0.113103256
57	0x3c54028c	0.01294006
58	0xbbde4820	-0.0067835003
59	0xbd99b7e6	-0.07505779
60	0x3dcd4704	0.10023311
61	0x3e09e5c6	0.13466558
62	0x3e03808a	0.12842003
63	0xbe281b3e	-0.16416642
64	0x3e2adc3c	0.16685575
65	0x3d78733c	0.06065677
66	0xbd929de0	-0.071590185
67	0xbb87e35e	-0.0041469773
68	0x3cc91fd0	0.024551302
69	0x3e4470ac	0.19183606
70	0xbcdd18e9	-0.026989417
71	0xbe511f39	-0.20422067
72	0xbd60a650	-0.054846108
73	0xbe1be6e4	-0.15224797
74	0xbc6e3580	-0.014539123
75	0xbdc41c8e	-0.09575759
76	0x3dc406bc	0.09571597
77	0x3d2b103c	0.04176353
78	0xbd77380c	-0.060356185
79	0xbe1aaaff	-0.15104292
80	0x3e21f8b4	0.15817529
81	0xbe2a4af4	-0.16630155
82	0xbdc40a4f	-0.09572279
83	0xbe2bb9ab	-0.16770045
84	0xbe25bc6a	-0.16185156
85	0xbe0f4e75	-0.13994773
86	0x3d1f33dc	0.038867816
87	0x3e48ba6b	0.19602363
88	0xbd80eb89	-0.06294925
89	0xbe0abd60	-0.13548803
90	0x3ce61b38	0.02808915
91	0xbe1551e6	-0.14582023
92	0x3d2c4e17	0.04206666
93	0xbe5254cc	-0.2054016
94	0xbdba76a1	-0.09104658
95	0xbe17141e	-0.14753768
96	0x3c7c20de	0.0153886955
97	0x3e0cb591	0.13741137
98	0xbdca7a0f	-0.09886562
99	0x3b727a40	0.0036999136
100	0xbe1a20a3	-0.15051512
101	0xbddde2f6	-0.10834305
102	0x3e16d56a	0.14729849
103	0x3e316030	0.17321849
104	0xbe473df8	-0.19457233
105	0xbd866e55	-0.06564013
106	0x3df70d35	0.12063066
107	0xbd64dca3	-0.055874478
108	0x3db72520	0.08942628
109	0xbd5a6e24	-0.053327695
110	0xbd46d446	-0.048542283
111	0xbe019810	-0.12655663
112	0x3de92b78	0.11385244
113	0x3d9ff14d	0.07809696
114	0xbdc36c0e	-0.09542094
115	0xbd4b7f65	-0.04968204
116	0xbd8cde23	-0.06878307
117	0xbde697ff	-0.1125946
118	0xbe00fccd	-0.12596436
119	0xbd768e38	-0.060194224
120	0xbd8f01dc	-0.069827765
121	0xbe0f71f3	-0.14008312
122	0x3df5e57b	0.120066606
123	0xbde7968b	-0.11308011
124	0xbdbd06d6	-0.092298195
125	0xbdfc3372	-0.123145
126	0x3e224a62	0.15848687
127	0xbe024da7	-0.12724935

model.2.weight f4 [1, 128]
0	0xbd7f92b0	-0.06239575
1	0xbcd387aa	-0.025821526
2	0x3da20c34	0.07912484
3	0x3d7b5832	0.061363406
4	0x3d22a1b2	0.039704986
5	0x3d78e63a	0.060766436
6	0x3d1e5876	0.03865858
7	0x3a2d18c2	0.00066031155
8	0x3c7e058c	0.015504252
9	0xbcc71739	-0.024303066
10	0xbba4bef7	-0.0050276476
11	0xbd844c77	-0.06459897
12	0xbc9076c4	-0.017634757
13	0x3d8abe79	0.06774611
14	0xbdb3df25	-0.08782796
15	0x3da7626d	0.0817307
16	0x3d5de4f8	0.05417344
17	0x3cf6b3e6	0.03011508
18	0x3d98de94	0.074643284
19	0xbdaf85e4	-0.085704595
20	0xbc189878	-0.009313695
21	0xbc36b023	-0.011150393
22	0xbc941808	-0.018077865
23	0xbd0ea2fc	-0.034823403
24	0xbd81da4b	-0.06340464
25	0x3c6fb3fb	0.014630313
26	0x3d08b5fb	0.033376675
27	0x3ca30875	0.019901494
28	0x3cafc28c	0.021455072
29	0xbc325268	-0.010883905
30	0xbbaee3d0	-0.005337216
31	0x3d919e9f	0.07110333
32	0x3ab7eb5d	0.0014031936
33	0x3b82f54d	0.0039965273
34	0x3d8c0cbd	0.06838367
35	0x3c8c72de	0.017144617
36	0x3d992b63	0.074789785
37	0x3d31957a	0.043355443
38	0x3cce9255	0.02521626
39	0xbaf484c0	-0.0018655285
40	0x3c9a4d6c	0.018835746
41	0x3bce6cc0	0.006299585
42	0x3d2f01b2	0.042726226
43	0x3cc7a170	0.024368972
44	0xbc0a3fd2	-0.0084380675
45	0xbd24ed82	-0.040265568
46	0x3db435de	0.08799337
47	0x3d1e4a21	0.038644914
48	0x3d5d9924	0.054101124
49	0x3c85f3f5	0.01635168
50	0xbd59034d	-0.052981663
51	0x3d5a523a	0.053301074
52	0x3d58aa36	0.0528967
53	0x3ba1dc6f	0.004939608
54	0x3c1a5950	0.009420708
55	0xbcbb6dea	-0.02287956
56	0x3d746638	0.059667796
57	0xbaee49c6	-0.0018179945
58	0xbd7cebf4	-0.06174846
59	0x3cdc8538	0.026918992
60	0xbbfd4180	-0.0077287555
61	0x3d28a326	0.041171215
62	0xbd021de6	-0.031766795
63	0xbc50f079	-0.012752646
64	0xbd90037c	-0.070319146
65	0x3c5d4a84	0.013506535
66	0xbd9c1250	-0.0762068
67	0xbd3f5cef	-0.046719488
68	0x3d962f3b	0.07333227
69	0x3d7d5603	0.061849605
70	0x3c8cd002	0.01718903
71	0xbbf16a57	-0.007367413
72	0x3c9fc8b1	0.019504877
73	0xb92ad800	-0.0001629293
74	0x3c8a38f5	0.016872862
75	0x3cfbed04	0.030752666
76	0xbd53277f	-0.05155134
77	0x3c3a1020	0.011356384
78	0x3d8fcaf7	0.07021134
79	0xbc8a288c	-0.016865037
80	0x3d7a521a	0.061113454
81	0xbd05aadb	-0.032633644
82	0xbcb0db44	-0.021588929
83	0x3b588fef	0.0033044775
84	0xbc08cc58	-0.008349501
85	0xbcadf1a1	-0.021233382
86	0xbd5b591b	-0.053551774
87	0x3d9276d9	0.07151575
88	0x3cb2c7a8	0.02182372
89	0xbd64088f	-0.055672225
90	0x3b4eab80	0.0031535327
91	0xbc4f5e18	-0.012656711
92	0xbce7d728	-0.028300837
93	0x3d4a185e	0.049339645
94	0x3d615632	0.055013843
95	0xbce18a24	-0.02753169
96	0x3d739836	0.05947133
97	0x3c97121f	0.018441258
98	0x3d3bceee	0.04585164
99	0xbd9ca81d	-0.076492526
100	0x3d858b52	0.06520714
101	0x3d66384e	0.05620604
102	0xbd86b336	-0.065771505
103	0x3d1552e6	0.03645601
104	0xbd60be02	-0.054868706
105	0x3d0b0b4f	0.03394633
106	0xbd61338d	-0.054980803
107	0x3d4426fb	0.047888737
108	0x3d8d150d	0.06888781
109	0xbdb2aa27	-0.0872386
110	0x3ca47324	0.020074435
111	0x3a9f8dba	0.0012172975
112	0xbd5cf8df	-0.05394828
113	0x3b939c6b	0.0045047305
114	0x3cff9b89	0.031202095
115	0x3cb65f76	0.022262316
116	0xbc77ef97	-0.015132806
117	0x3c5eb79d	0.0135935815
118	0xbc9634e4	-0.018335767
119	0xbce31745	-0.027721057
120	0xbda4af61	-0.08041263
121	0x3c48cba8	0.012255587
122	0xbc8f8172	-0.017517779
123	0x3da546db	0.08070155
124	0x3d88a891	0.066727765
125	0xbd9b76d2	-0.075910226
126	0x3d27bc06	0.040950797
127	0x3cb20090	0.021728784
