week1/model_pytorch_income.pth (torch, 54456 bytes, 3 tensors)

model.0.weight f4 [128, 100]
000000 a7 2d 97 be 8f d4 c9 3c 2c 3c 62 bd 8f 19 89 be
       -0.29527017 0.024637489 -0.055233166 -0.26777312
000010 1c 45 49 bd 5e 54 dd 3d 50 50 46 be 4b 4d 78 be
       -0.049138173 0.108071074 -0.19366574 -0.24248235
000020 b3 2c 85 3e 68 9e 36 bd c5 f5 8c bd ef 85 46 3d
       0.26010665 -0.04458466 -0.06882814 0.048467573
000030 46 66 af bd 43 b8 da 3d f9 21 10 bd 6e 33 96 bc
       -0.08564429 0.106796764 -0.03518865 -0.01833507
000040 e8 c8 25 3d 2e c9 2b be cd c7 32 3d b0 fd 95 3d
       0.040474802 -0.16775963 0.043647576 0.07323778
000050 5c 09 41 3e 04 87 02 bd 61 bd 9d bd 67 2d f6 3d
       0.18851227 -0.031867042 -0.07702137 0.120203786
000060 b2 da 97 bc c3 ff 42 be fb 1f 49 3e b4 fb b9 3c
       -0.0185369 -0.19042878 0.19641106 0.02270303
000070 95 85 b9 3d ae 8a 77 bd 68 2d 7d bd e3 ae 64 bc
       0.09058682 -0.06043499 -0.06181088 -0.013957712
000080 bd 7c 79 3d 97 3f 97 3d a6 9e 1e 3c 19 b7 0a 3e
       0.060909975 0.07385176 0.009681379 0.13546409
000090 93 8e 93 3d 06 f3 16 be 73 1c a5 3c a3 46 5d 3e
       0.07204928 -0.14741144 0.020155167 0.21608977
0000a0 2f fd 1b bc 6b c6 a5 3d 19 41 5b 3d fa 99 5a 3e
       -0.009520813 0.08094486 0.05352888 0.213478
0000b0 83 95 17 be 7a 54 26 be 0b f5 01 3d 38 a3 39 3d
       -0.14803128 -0.16243163 0.03172783 0.045321673
0000c0 f6 79 e2 bd f0 cf 61 3d 0b b5 19 3e f5 32 88 3e
       -0.110584185 0.055129945 0.15010469 0.26601377
0000d0 24 02 d3 3d 9e 5c 58 3d fc 0e a1 3d a1 5d 84 3d
       0.10303143 0.0528227 0.07864186 0.06463171
0000e0 3a aa 04 3d 6f 23 69 3d 50 1f f0 3c a4 89 c2 be
       0.032388903 0.056918558 0.029311806 -0.37995636
0000f0 43 58 af be b8 d0 0e 3e af d0 f6 3e 38 e5 ed 3d
       -0.34247026 0.13946807 0.48206088 0.11615986
000100 e8 2b 98 3e 38 48 0b bc 4b 09 45 3e 03 d8 dd be
       0.29720998 -0.008501105 0.19241826 -0.43328866
000110 e6 93 b8 3e ff c3 1e 3e 38 59 c1 be df f5 25 bd
       0.36050338 0.15504454 -0.3776338 -0.040517684
000120 a9 54 a3 3d 00 d4 98 3b 06 09 5e 3e 2b 28 15 bd
       0.07975132 0.0046639442 0.2168313 -0.03641526
000130 e4 36 c4 3e d6 2c 3b 3e 3b 53 2f bd fe 37 a9 bd
       0.38323128 0.18278822 -0.042803984 -0.08262633
000140 be 23 39 be f7 49 f3 bd 8b 9d d9 3e bc 98 ae 3e
       -0.18080041 -0.11879342 0.42503008 0.34100902
000150 5c af 4a 3e 26 5c 91 bc 66 53 27 3d fa a6 cf 3e
       0.19793457 -0.017744135 0.04085102 0.4055708
000160 34 fe 8a 3c 38 3b 57 3e 13 50 8a be 1d 80 22 3e
       0.016966917 0.21018684 -0.27014217 0.15869184
000170 49 2e 53 3b 34 8d b3 3d 6e c5 5b 3d 35 05 16 3e
       0.0032223633 0.08767167 0.05365508 0.14650424
000180 3e 2a 9c bd ff 9f 0e 3d 14 a4 b2 bd 91 49 9a be
       -0.076252446 0.034820553 -0.08722702 -0.30134252
000190 63 51 33 3d 78 ff 16 bb e6 5f 06 bc 5b 61 a3 3d
       0.04377879 -0.0023040455 -0.008201575 0.079775535
0001a0 ad 32 1e 3e 86 c0 82 3d 97 93 50 bd b2 ce ea bd
       0.15449019 0.06384377 -0.050922003 -0.11465205
0001b0 65 1a bc bd 12 82 fb bc 24 81 4f 3d 02 7a 13 bd
       -0.09184722 -0.03070167 0.050660267 -0.036005028
0001c0 30 17 e2 bc 1a 26 82 3e 92 c6 c1 3c 59 80 0e be
       -0.027598947 0.25419694 0.023654256 -0.13916148
0001d0 19 0a a8 bc 75 86 a9 bd 64 ee c3 3b 83 56 06 bc
       -0.020512627 -0.08277599 0.005979346 -0.008199337
0001e0 fa d9 fb bd 1f 43 00 be cf b7 42 bc a5 a6 64 3c
       -0.12297435 -0.12525605 -0.011884644 0.013955747
0001f0 d9 41 8e bc 91 ce a7 bc 4c f4 5e bd a0 99 29 3e
       -0.017365383 -0.02048424 -0.0544322 0.1656251
000200 14 25 a7 3c ef 74 b1 bc e7 c6 12 bd 83 99 3d bc
       0.020403422 -0.021662204 -0.03583422 -0.011572245
000210 fb 76 f2 bb b6 76 db bc 01 2b d2 bd 3a 1e c7 bd
       -0.0073994375 -0.026790004 -0.102621086 -0.09722562
000220 87 74 17 bd b1 05 7d bd d4 33 7d 3c b4 07 15 be
       -0.036976364 -0.061773006 0.015454251 -0.1455372
000230 1a 42 5d bd 8e 0f 57 3c 67 9f c1 3b b2 c7 45 bd
       -0.054018117 0.013126267 0.005908895 -0.048286147
000240 4b bd 87 bd 15 22 eb bd c7 91 ff 3c d9 e8 50 3d
       -0.06627902 -0.1148111 0.031197442 0.05100331
000250 7e 4c 36 bd 4a 11 07 be 3a 4a 16 be 30 3e d4 3c
       -0.044506542 -0.13190189 -0.14676753 0.02590856
000260 4c 2f 92 bd 41 57 3d bd b6 ac 23 bd 6b 33 fc 3c
       -0.071379274 -0.04622579 -0.03995963 0.030786237
000270 f0 79 0a bd 6d b2 03 3d d9 d7 2e bd e1 fb b9 3c
       -0.033807695 0.032152582 -0.042686317 0.022703113
000280 8f 1f 53 be 8d 65 3e be 84 79 93 bd 14 7f ca bd
       -0.20617507 -0.18593426 -0.07200912 -0.098875195
000290 8c 98 07 be c3 b4 69 bd d4 c4 48 bd b6 4b 88 3d
       -0.13241786 -0.057057153 -0.049015835 0.06655066
0002a0 e3 a0 17 be 9b e2 d5 3d cf 7f 09 3e 1f aa de bd
       -0.14807467 0.10443612 0.13427661 -0.10872292
0002b0 cd 94 1c bd 72 5f 14 3d 96 84 b5 ba 5c d0 79 bd
       -0.038227845 0.036223836 -0.0013848718 -0.060989723
0002c0 ca 54 ae 3d db 71 1b bd 4c 97 24 3d 51 d3 b1 bd
       0.08512266 -0.037950378 0.04018335 -0.086828835
0002d0 89 54 ee bc d1 ec 06 bd c3 45 28 3d 5f 1c 76 be
       -0.029093044 -0.03294069 0.041082155 -0.2403426
0002e0 3c 45 6c bd 42 91 55 3c e5 ec 01 be 5e 5a 6a bd
       -0.057683215 0.01303512 -0.12688024 -0.057215087
0002f0 7d 08 4d bd 1e e8 51 be 71 a6 84 3d c1 d9 ed bd
       -0.050056923 -0.20498702 0.06477059 -0.11613799
000300 ea 8a 58 3c 11 13 c7 bd cc e9 42 3e d6 3b 0d 3c
       0.013216713 -0.097204335 0.19034499 0.008620223
000310 62 80 a1 bc f2 d2 65 bd e3 4a 40 be b8 c9 28 3e
       -0.019714538 -0.056109376 -0.18778567 0.164832
000320 41 30 ea 3c 10 9a 9d 3c 38 a6 06 3d 48 e2 27 3e
       0.028587462 0.019238502 0.032873362 0.16394913
000330 54 17 96 3d c6 5a c7 3d 94 f4 b7 3d 57 ed d9 bd
       0.07328668 0.097341105 0.089821965 -0.10640972
000340 1e d7 0d bd c1 15 8b bd 4d c6 27 3e 2c 99 d3 bd
       -0.03462898 -0.067912586 0.1638424 -0.103319496
000350 25 9b ef bc 37 d4 d2 bc 13 2b b2 bd 79 b4 22 be
       -0.029248783 -0.025735958 -0.08699622 -0.15889157
000360 59 d8 0a 3c a3 7c ad bd 84 64 15 bd d2 6a f7 bd
       0.008474433 -0.08471038 -0.036472812 -0.12080921
000370 14 08 70 3c 74 2f 36 3d 69 af ee bb 55 96 83 3d
       0.0146503635 0.04447885 -0.007284094 0.06425158
000380 af 98 7c 3c de 41 26 3e 07 e3 73 bc 4c f5 19 3e
       0.015417262 0.16236064 -0.0148856705 0.1503498
000390 42 bc b2 bb e1 51 85 3e f7 08 12 3e 05 43 4d bd
       -0.005454571 0.2603903 0.14261232 -0.050112743
0003a0 dc 2f 2f bc ec 27 b1 bd c1 89 60 bd 83 e4 27 3d
       -0.010692563 -0.086501926 -0.054818872 0.04098941
0003b0 51 2e 1d 3e 31 56 4e bc 7c 45 04 3e 5e 69 85 bd
       0.153497 -0.012593792 0.12917131 -0.06514238
0003c0 b3 6e 63 bd ed e8 1f bd 51 63 81 bd 26 7a 2a 3c
       -0.055525493 -0.039040495 -0.06317771 0.010405099
0003d0 c3 02 0e 3e ef 27 eb bd 2a 11 35 3d 26 ff 58 3d
       0.13868241 -0.11482226 0.044205822 0.052977704
0003e0 b2 c0 dc 3c 41 29 01 be 70 fa f8 bd a7 fd b1 bc
       0.026947353 -0.12613393 -0.12157142 -0.021727396
0003f0 3c 2e a2 bd 39 92 3f 3c 2e 31 c0 bd e5 54 c1 bb
       -0.07918975 0.011692577 -0.0938438 -0.005900013

model.0.bias f4 [128]
000000 8d ba a7 bc bf 72 1b be 96 68 61 3d 43 58 d6 3d
       -0.020474697 -0.15180491 0.05503138 0.10466053
000010 4a e1 1a bd dc 2a fb 3d 93 b5 c7 3d 62 75 b1 bd
       -0.03781251 0.12264034 0.097514294 -0.08664967
000020 55 3a a9 3d 74 7f d1 3c 69 f5 94 3d a8 30 b4 bd
       0.08263079 0.02557347 0.07273371 -0.08798343
000030 59 a7 80 bc 11 c1 de 3d ab db 25 3d bd f2 ba bd
       -0.015704798 0.10876668 0.040492695 -0.0912833
000040 61 b9 9d bd f9 4f b4 3d 44 1e 0f 3e 61 e9 8d 3c
       -0.07701374 0.08804316 0.13976389 0.017323198
000050 94 df e3 3c fa f0 6a 3d 97 58 0c 3d 5c 50 18 3e
       0.027816571 0.05735872 0.034264173 0.14874405
000060 bd 5b bc bd 6a f5 2a 3c bd 63 cf bd 78 2b bc 3a
       -0.09197185 0.010434488 -0.101264454 0.0014356216
000070 35 9b a5 bd 51 b3 71 bd 6d c9 b8 bc ed a4 81 3d
       -0.08086244 -0.0590089 -0.022556985 0.06330285
000080 3f a2 b3 3d 18 3f 2d 3d 2d a1 f0 3d 16 0c d5 bd
       0.0877118 0.0422965 0.11749492 -0.10402696
000090 6f 93 d4 3d f5 6d e9 3d c4 de c5 bc d3 48 06 3e
       0.10379683 0.11397926 -0.024154074 0.13113718
0000a0 cd 72 ad bd 45 fa f2 3d d3 52 9c 3d 07 f5 e5 bd
       -0.08469162 0.118641414 0.07632985 -0.11228376
0000b0 19 7e c5 3b 85 04 ec bd 16 b7 c9 3d 6c c5 fb bd
       0.006026995 -0.115242995 0.09849374 -0.122935146
0000c0 b0 77 f7 3c 76 e4 09 be 42 09 7d bd 4b c8 ef 3c
       0.030208439 -0.13466057 -0.061776407 0.029270312
0000d0 4e c7 1a be 93 73 2d 3d 48 cc 4b bc be 54 b9 3d
       -0.15115091 0.04234655 -0.012438841 0.090493664
0000e0 be a2 17 3e 16 56 bd 3d 21 0d ac 3b 5d 65 a2 bc
       0.14808175 0.09244935 0.0052505885 -0.019823724
0000f0 a1 47 34 3d 32 e5 d1 3a 64 46 f6 bc 2b ba 8e bc
       0.044013623 0.001601374 -0.030062862 -0.017422756
000100 1e 9c c4 bd 54 4d 02 3c 6b 62 c9 3b f8 3c 52 bd
       -0.096000895 0.007953007 0.0061457655 -0.051327676
000110 55 64 61 3c 8e 22 07 3b 40 cc cd 3d de f1 24 3c
       0.013756831 0.0020619961 0.10048723 0.010067431
000120 8c 45 14 3c 73 b6 d3 bb d6 04 f8 3a f7 77 25 3e
       0.009049784 -0.0064609586 0.001892234 0.16159044
000130 ba cd 7b bc d5 13 cf bc e6 5c 27 bb 34 05 c0 3d
       -0.015368873 -0.025278011 -0.002553755 0.093759924
000140 4b 28 9e 3d 7a b2 83 3d c0 dc c3 bc 4e ed 15 3d
       0.07722529 0.06430526 -0.023908973 0.036603265
000150 cd bf 0b bb cd f1 9f bd 07 e7 75 3d 89 c8 92 3d
       -0.002132404 -0.07809792 0.060034778 0.07167155
000160 1d f5 17 3d 82 06 cb 3d 6b ca 0e bd 83 2e bf 3d
       0.037098993 0.09913351 -0.03486101 0.09335043
000170 47 53 b6 bd 3d a7 87 3d 30 54 bb bc a9 54 30 bd
       -0.08902603 0.06623695 -0.022867292 -0.04304949
000180 4a 5a a0 3d c8 1b f1 bb b3 bc 79 bc ce f8 3f 3c
       0.07829721 -0.007358048 -0.015242743 0.0117170345
000190 65 d2 de bd e6 49 b6 bc 65 71 ab 3d f6 89 ac bd
       -0.10879973 -0.022252034 0.08371238 -0.084247515
0001a0 10 06 7e 3d d4 1e bb 3d 90 e2 a4 bd 4f c9 52 bc
       0.0620175 0.091367394 -0.08051026 -0.0128653785
0001b0 48 6b b3 3d 3d 2c b2 3b 06 4c e5 bc 13 21 86 3c
       0.08760697 0.0054374025 -0.027990352 0.016373193
0001c0 6d fd c1 bc 26 92 5f 3b d7 a9 14 3c 3c 20 3d 3c
       -0.023680413 0.003411421 0.009073696 0.01154333
0001d0 e0 da 9d bc 86 1d 98 3d 0f 67 ba bc ca 0d b4 3d
       -0.019269407 0.07427506 -0.02275422 0.087916926
0001e0 ec 9f 34 3e a5 51 c1 3d 6d a3 a8 3d 2f e7 05 be
       0.1763913 0.094394006 0.08234296 -0.13076471
0001f0 47 5b 13 3e bb 01 93 3d 22 7d 14 3c 7a 43 41 3c
       0.14390288 0.071780644 0.009063037 0.011795873

model.2.weight f4 [1, 128]
000000 c8 07 14 be 73 33 3a 3d 62 7c 76 3d 34 c6 ca bd
       -0.14456093 0.045459222 0.060177214 -0.099010855
000010 8c 08 03 3e 82 e8 dc bd 07 4b 23 3e 0f 2a 0b 3e
       0.12796229 -0.10786535 0.1594659 0.13590263
000020 39 ec 2d 3e 5c 10 7b bd 6e 67 ef bd 8f a0 3b 3e
       0.16984643 -0.0612949 -0.116896495 0.18322967
000030 07 7d de bc 15 e6 49 be 4c 20 b5 bd 85 6d b7 bb
       -0.027159227 -0.19716676 -0.08844051 -0.0055977725
000040 ff 2c ea bd 02 5b d0 bd 2b ee f8 bd 1f 11 11 3e
       -0.114343636 -0.10173608 -0.12154802 0.14166687
000050 b8 e5 d5 3d 51 07 ec bd 66 43 d2 bd 5e 94 3c be
       0.10444206 -0.11524833 -0.102667615 -0.18415973
000060 5c c7 91 3c 89 9f c3 be fa 5e e8 3c 6a 47 20 be
       0.017795257 -0.38207653 0.0283656 -0.15652242
000070 c6 f0 8b 3d e2 00 ee bd fc 21 4d 3c f2 e8 c1 bd
       0.06833033 -0.11621262 0.01252031 -0.09468259
000080 12 fe 0e be 88 56 7a 3c ba 35 1f be 8f bf f1 3c
       -0.13964108 0.01527942 -0.15547839 0.029510288
000090 4a d0 52 be 00 6e 82 3e 93 9c 82 be 2e df 0b be
       -0.20587268 0.25474548 -0.25510082 -0.13659355
0000a0 4e 5d cc 3d 06 13 2a be da b9 0e bd d9 20 1f bd
       0.09978734 -0.1660882 -0.03484521 -0.038849685
0000b0 0e 57 9d bd 82 bb 4c 3c 0d 80 6d be f0 b9 04 bd
       -0.0768262 0.012495877 -0.23193379 -0.032403886
0000c0 3a 98 0f 3e ee 19 3b 3c 73 16 6c bd 5d 07 bf 3e
       0.14022914 0.011419756 -0.057638597 0.37310305
0000d0 d7 1c 1e 3c eb 26 50 bd d8 97 93 be d9 78 49 be
       0.009650431 -0.050818365 -0.28826785 -0.19675006
0000e0 b1 42 30 be b9 ba 17 3e 07 e1 06 be 2f 0f 59 3e
       -0.17212941 0.14817323 -0.13171779 0.21197198
0000f0 ac a8 58 be f8 c4 69 3e 3f 3f 57 be 75 f0 f5 3c
       -0.21158093 0.22829044 -0.2102022 0.030021885
000100 b5 ca 6a 3e cf 88 03 be 2c 7a e0 3d 1d 62 46 3e
       0.22928889 -0.12845157 0.109608024 0.19373365
000110 56 33 3e 3d 4b aa 03 3e b3 ef d6 bd ee fd c1 be
       0.046435677 0.1285793 -0.10494938 -0.37889045
000120 0f 61 1d 3d ab dc 2e be 4a 68 87 3e 74 e5 1c be
       0.03842264 -0.17076366 0.26446754 -0.15321904
000130 48 55 0a 3d ad 9e 66 bd 1c ad 8e bd 2d fd 3f be
       0.033772737 -0.05630367 -0.06966612 -0.18748923
000140 c1 d0 fd bd b3 98 be bd 9c ff 43 be 77 2e 10 be
       -0.12393332 -0.09306469 -0.19140476 -0.14080225
000150 06 e4 d9 bd 24 2e 02 3e a3 eb 19 be e8 69 ce bd
       -0.10639195 0.12712914 -0.15031295 -0.10078794
000160 32 05 1e 3e 2e 2a d5 bd 2c 07 9f bd 1a 63 50 3d
       0.1543167 -0.10408436 -0.0776504 0.05087576
000170 95 af 18 3e 41 5d 94 be 73 26 22 be 7b e3 e3 3a
       0.14910729 -0.28977397 -0.1583498 0.001738652
000180 3b ee 26 be b1 3f df bd 67 14 14 be 5d 4b 08 be
       -0.16301815 -0.1090082 -0.14460908 -0.13309999
000190 4c 68 06 bd 17 2a 1b bb 2a 15 9e bd 84 20 94 3d
       -0.03281431 -0.002367621 -0.077188805 0.07232764
0001a0 88 7d 82 be d0 4c 16 be f4 57 00 3e a7 0d 29 be
       -0.25486398 -0.14677739 0.12533551 -0.16509114
0001b0 05 23 3e be e2 b3 4c 3d 0d 36 33 be 86 9e bc bd
       -0.18568046 0.049976237 -0.17501087 -0.092099234
0001c0 ad 3f 0d be 58 83 46 be dd 43 24 3d 0b 5a 25 bd
       -0.13793822 -0.19386041 0.040103782 -0.040369075
0001d0 59 f2 d9 bd 48 6e e4 bd 01 af 49 be bf 54 e9 bd
       -0.10641927 -0.11153847 -0.19695665 -0.11393117
0001e0 41 b4 30 be d9 1c 02 3e 9f a3 1c be 64 63 2e bc
       -0.17256261 0.12706317 -0.15296791 -0.010643814
0001f0 ed 21 37 be e4 19 bb bc 0a 67 16 be 9b 8b 04 be
       -0.17884035 -0.022839494 -0.14687744 -0.1294388
