week1/model_pytorch_income.pth (torch, 54456 bytes, 3 tensors)

model.0.weight f4 [128, 100]
-0.10998241 0.080840655 0.025695276 -0.15524647 -0.030152397 -0.068849705 0.017628876 0.037962873
0.111930504 -0.04933187 -0.042264745 -0.14966787 0.07682378 0.30403534 0.01384136 0.042647414
0.17479035 0.06854038 0.010924656 -0.082116395 0.041282687 0.079223655 0.0979549 -0.21267624
-0.043043908 0.03933826 0.13689691 -0.056908794 0.054855682 -0.21946988 -0.13155034 -0.0098001845
0.12862046 0.054129872 0.0014076841 0.11659911 -0.043585256 -0.16359384 -0.07242453 0.15306307
0.1463195 0.14818771 0.069904804 0.22316049 -0.013063935 -0.25120133 -0.18935697 0.06913748
0.056206483 0.15843691 0.14042518 0.15856847 0.20982327 -0.22153598 0.09468935 0.10737753
-0.068600476 -0.002157514 0.016545985 -0.09318569 0.29810154 0.2929462 0.39585024 0.06376938
0.22919264 0.21649387 0.32037202 0.025404928 0.035528656 0.18314238 -0.38228798 -0.22307605
-0.06414123 -0.01768466 0.22274283 -0.21412362 -0.37486938 0.022242287 0.36298984 -0.22264795
-0.1630203 -0.15250286 0.23653322 0.23125371 0.15069804 0.03277331 -0.008776462 0.36811835
0.0739223 0.12489433 -0.3128776 -0.19342911 0.36150858 -0.014203414 0.0034614035 0.29390547
0.29621613 -0.03224973 0.22298267 0.11604144 -0.026389848 -0.06522395 0.09906524 0.059484657
-0.04396112 -0.021418784 0.13251577 -0.06266018 -0.13680828 -0.024922645 -0.08614975 -0.07305461
0.06810397 -0.06741935 0.026308075 -0.04213238 0.013595611 -0.121526934 0.028959887 0.003771164
-0.03456203 -0.11306679 -0.050834537 0.18099113 -0.13929376 0.06824575 0.018761925 0.13734502
-0.09630969 0.11906082 0.055425167 -0.10789788 -0.14604425 -0.088818066 -0.039897352 0.0446196
0.06963381 0.019539146 0.17003037 0.008162753 -0.04577605 -0.06742221 0.024020934 0.008880267
0.14175284 -0.01121666 -0.14404385 0.04876343 -0.092007674 -0.15355866 -0.14179125 -0.0053370656
-0.07320293 -0.0055308533 -0.11765528 0.00789676 -0.08939254 -0.028425455 0.036167704 -0.13343629
-0.14888948 0.009886876 -0.0570666 0.096832745 0.055628467 0.0019080486 -0.11461129 -0.15363422
0.27071187 0.063222475 -0.07065779 -0.015153271 -0.13801971 -0.06030437 -0.107046515 0.14817087
-0.025912896 0.11494191 0.11918188 -0.022707008 0.031366345 -0.10305369 0.03891629 0.06657479
0.021652337 -0.08623843 -0.011241045 -0.14871053 0.100619495 -0.104989246 -0.07986833 -0.04984778
-0.038308207 -0.18092439 0.076425165 0.12364672 -0.14036047 -0.13535647 -0.07514121 -0.12185975
-0.03100403 0.17447454 0.13586424 0.39024118 0.12297766 -0.08416276 0.20403464 -0.03891332
-0.48133087 0.051318858 0.10887246 -0.11454892 -0.04657592 -0.04737486 -0.19199482 0.025190132
-0.35765448 -0.3765987 -0.22880682 -0.46609133 0.052748907 -0.13565761 0.037321184 0.034928493
0.058196895 0.006585553 -0.063852385 0.064037226 0.026414832 0.19173491 0.12076233 0.05563212
-0.1496715 0.09934464 0.16056858 0.1407082 0.3045069 -0.13590495 0.09307333 -0.08383507
0.14884475 0.10865016 0.04934616 0.099629425 0.08164007 -0.05155991 0.051310796 0.18937035
0.034636818 -0.1727626 -0.014752349 -0.26970294 -0.1990959 0.22706118 -0.1846782 0.122437954
00000000: 753e e1bd c98f a53d e67e d23c eef8 1ebe
00000010: 2902 f7bc 1301 8dbd 6f6a 903c f57e 1b3d
00000020: d23b e53d 3710 4abd cc1d 2dbd 8942 19be
00000030: c955 9d3d 85aa 9b3e dfc6 623c 0eaf 2e3d
00000040: 3efc 323e e65e 8c3d 54fd 323c a42c a8bd
00000050: 0918 293d 0340 a23d 949c c83d cdc7 59be
00000060: cf4e 30bd 2821 213d b42e 0c3e 3219 69bd
00000070: 5ab0 603d b6bc 60be 22b5 06be f490 20bc
00000080: 15b5 033e 49b7 5d3d 0a82 b83a 84cb ee3d
00000090: 7486 32bd 2585 27be 5053 94bd 91bc 1c3e
000000a0: c7d4 153e 85be 173e 402a 8f3d 2f84 643e
000000b0: 1d0a 56bc 769d 80be cbe6 41be f397 8d3d
000000c0: c538 663d 493d 223e 9ecb 0f3e c65f 223e
000000d0: e9db 563e 54da 62be 7dec c13d c0e8 db3d
000000e0: 687e 8cbd 1465 0dbb 728b 873c 24d8 bebd
000000f0: c4a0 983e 0bfd 953e e2ac ca3e 8599 823d
00000100: 7ab1 6a3e 92b0 5d3e cd07 a43e ff1d d03c
00000110: 7f86 113d ad89 3b3e 40bb c3be 0c6e 64be
00000120: 7a5c 83bd 6cdf 90bc b216 643e 3943 5bbe
00000130: e1ee bfbe 7535 b63c ced9 b93e d3fd 63be
00000140: cbee 26be b629 1cbe c435 723e c6cd 6c3e
00000150: 9650 1a3e 4e3d 063d 26cb 0fbc 027a bc3e
00000160: 9364 973d 99c8 ff3d 7e31 a0be 4812 46be
00000170: a717 b93e 70b5 68bc b7d8 623b c77a 963e
00000180: a4a9 973e 4b18 04bd 9255 643e 22a7 ed3d
00000190: 862f d8bc 2294 85bd b7e2 ca3d 2fa6 733d
000001a0: 9310 34bd 7276 afbc 37b2 073e fb53 80bd
000001b0: 7817 0cbe 932a ccbc 486f b0bd a89d 95bd
000001c0: 187a 8b3d 2813 8abd 0884 d73c 0193 2cbd
000001d0: 20c0 5e3c 1de3 f8bd 493d ed3c a225 773b
000001e0: ea90 0dbd 908f e7bd e037 50bd bd55 393e
000001f0: 06a3 0ebe 6ec4 8b3d 9cb2 993c 2ca4 0c3e
00000200: 043e c5bd 29d6 f33d 8005 633d 90f9 dcbd
00000210: a08c 15be 3fe6 b5bd 686b 23bd 0bc3 363d
00000220: 2c9c 8e3d 8f10 a03c 711c 2e3e 11bd 053c
00000230: ab7f 3bbd a814 8abd 8dc7 c43c 8a7e 113c
00000240: a827 113e 15c6 37bc 3b80 13be 2abc 473d
00000250: 856e bcbd 7b3e 1dbe ba31 11be 8de2 aebb
00000260: 6beb 95bd 293c b5bb 40f5 f0bd 6961 013c
00000270: 7013 b7bd 80dc e8bc 9624 143d 86a3 08be
00000280: 7c76 18be 90fc 213c abbe 69bd 3f50 c63d
00000290: adda 633d 7d17 fa3a 53b9 eabd 4a52 1dbe
000002a0: bf9a 8a3e c97a 813d 08b5 90bd 6d45 78bc
000002b0: 0a55 0dbe b701 77bd 343b dbbd 1bba 173e
000002c0: 4847 d4bc aa66 eb3d a115 f43d 0c04 babc
000002d0: ff79 003d d00d d3bd b066 1f3d 5d58 883d
000002e0: 3e60 b13c c69d b0bd 5c2c 38bc 9347 18be
000002f0: 9811 ce3d 9a04 d7bd 0292 a3bd 302d 4cbd
00000300: 11e9 1cbd 3e44 39be cc84 9c3d 7e3a fd3d
00000310: a8ba 0fbe e39a 0abe a2e3 99bd 9b91 f9bd
00000320: 2afc fdbc 74a9 323e ff1f 0b3e b1cd c73e
00000330: b6db fb3d 865d acbd 75ee 503e 9363 1fbd
00000340: 0071 f6be b933 523d 86f8 de3d a098 eabd
00000350: 64c6 3ebd 240c 42bd 4a9a 44be 895b ce3c
00000360: 7d1e b7be 8bd1 c0be 564c 6abe 86a3 eebe
00000370: 3d0f 583d d4e9 0abe 19de 183d 2e11 0f3d
00000380: de5f 6e3d 9fcb d73b 0ac5 82bd f325 833d
00000390: eb63 d83c 2856 443e 3e52 f73d 82de 633d
000003a0: 7c43 19be 3475 cb3d 176c 243e cf15 103e
000003b0: 54e8 9b3e ab2a 0bbe 3b9d be3d b9b1 abbd
000003c0: c26a 183e fa83 de3d 331f 4a3d 830a cc3d
000003d0: e932 a73d 7c30 53bd 452b 523d 4dea 413e
000003e0: 56df 0d3d aee8 30be d6b3 71bc 8116 8abe
000003f0: ccdf 4bbe ba82 683e 481c 3dbe c0c0 fa3d

model.0.bias f4 [128]
0.024154294 -0.028403437 0.07713529 -0.033452425 -0.04904661 0.13270558 -0.056270007 -0.011917514
-0.066837996 -0.09956464 0.038792912 0.08113986 -0.022381676 -0.118859 0.041193195 -0.015837528
0.1087723 0.094376445 -0.113965906 0.12150292 -0.07971482 -0.013689091 0.12707695 -0.013939262
0.017640347 0.045794316 -0.008206356 0.0865089 0.12508856 -0.03949422 0.050857052 0.02360628
0.1285529 0.032722164 0.035163615 0.056613684 -0.13280421 -0.063098505 0.062148977 -0.030393537
-0.006849937 0.031620067 0.0001022934 0.050759777 0.04481475 0.07875322 0.09553781 -0.03277466
0.04514282 0.09345171 0.10061373 -0.0024367773 0.0042633223 -0.02536192 0.13306887 -0.10556469
-0.098195165 0.122929715 0.037876137 0.10832116 -0.07046453 0.075844325 0.10745625 0.055441868
0.111872114 0.124738514 0.090330906 0.09764034 0.14309025 -0.060150426 0.14389189 0.023750199
-0.07437413 0.052012693 0.120835565 0.07534456 -0.06137917 0.040094327 -0.060899105 0.088089585
0.026898837 0.026632367 0.08222453 0.09926797 0.08035594 0.107451566 0.14146054 -0.06789143
0.027745197 -0.036991708 0.14581676 0.119788624 0.0015063265 0.1360669 -0.012952694 -0.007471296
0.15284002 -0.095150165 0.091622084 0.087035574 0.02900055 -0.048171457 -0.05977966 0.039387643
0.04490178 0.069951616 -0.06674112 -0.0016991019 -0.05775205 -0.051402498 -0.03470934 0.013308079
-0.0863022 -0.0015341748 -0.035601337 0.08430632 0.03816456 -0.029990284 -0.030756684 0.106179416
-0.07840757 0.025507879 0.077203035 -0.029519103 -0.015625712 0.00015853834 -0.00091127516 -0.0097208675
00000000: 3adf c53c 53ae e8bc 1bf9 9d3d 6905 09bd
00000010: 19e5 48bd f9e3 073e 617b 66bd ad41 43bc
00000020: 5ce2 88bd 8ce8 cbbd 51e5 1e3d a82c a63d
00000030: c759 b7bc 596c f3bd 32ba 283d b4bd 81bc
00000040: 03c4 de3d 7048 c13d f566 e9bd 86d6 f83d
00000050: 8641 a3bd 3648 60bc 7620 023e 8161 64bc
00000060: 7d82 903c d292 3b3d f473 06bc 942b b13d
00000070: 3717 003e b1c4 21bd 7c4f 503d f561 c13c
00000080: 5fa3 033e ad07 063d b907 103d c0e3 673d
00000090: d4fd 07be ca39 81bd ed8f 7e3d defb f8bc
000000a0: 7075 e0bb 0b84 013d 5a86 d638 7ce9 4f3d
000000b0: ac8f 373d 5e49 a13d 54a9 c33d b93e 06bd
000000c0: ade7 383d 9c63 bf3d 920e ce3d 57b2 1fbb
000000d0: 57b3 8b3b cdc3 cfbc 3543 083e 4d32 d8bd
000000e0: 8c1a c9bd 93c2 fb3d 0224 1b3d 7cd7 dd3d
000000f0: b54f 90bd 4554 9b3d 0612 dc3d 0317 633d
00000100: 351d e53d e876 ff3d 69ff b83d a9f7 c73d
00000110: 4086 123e 4b60 76bd 6558 133e c78f c23c
00000120: 7751 98bd 430b 553d a378 f73d 404e 9a3d
00000130: b968 7bbd f339 243d 5771 79bd 5068 b43d
00000140: f35a dc3c 1f2c da3c 5665 a83d 014d cb3d
00000150: a891 a43d 910f dc3d 08db 103e a90a 8bbd
00000160: e549 e33c 9e84 17bd fd50 153e bd53 f53d
00000170: ee6f c53a 1f55 0b3e 8937 54bc c6d1 f4bb
00000180: 1882 1c3e 17de c2bd 5ca4 bb3d b53f b23d
00000190: 9092 ed3c 6f4f 45bd 84db 74bd f054 213d
000001a0: eeea 373d cb42 8f3d 91af 88bd 66b4 deba
000001b0: 6a8d 6cbd 6d8b 52bd 622b 0ebd 210a 5a3c
000001c0: 35bf b0bd 5d16 c9ba b5d2 11bd cba8 ac3d
000001d0: 7152 1c3d 2fae f5bc 71f5 fbbc 9874 d93d
000001e0: 2694 a0bd e6f5 d03c a01c 9e3d 0cd2 f1bc
000001f0: 7e01 80bc 503d 2639 a4e2 6eba 4644 1fbc

model.2.weight f4 [1, 128]
-0.14979665 0.022611035 0.14890745 -0.08673668 0.14603417 -0.11652286 0.17629296 -0.17508377
0.1193588 -0.016981231 0.0737329 -0.055717226 0.04658076 0.13217574 -0.065902285 0.02527444
-0.17363405 -0.056353338 0.08070933 -0.17307918 -0.25871363 0.09020769 -0.13341029 0.02700934
0.12733912 -0.09156056 0.16810365 -0.09741055 -0.22436967 0.10701208 -0.12414323 -0.012381044
-0.12965097 0.0055619273 0.15394217 0.11466199 0.0073624323 -0.02449996 -0.1620409 -0.16663085
-0.05840997 -0.08562714 -0.07601572 -0.04403248 -0.11027157 -0.09133859 -0.0345354 0.007084787
-0.14770067 -0.15972935 -0.0826861 -0.111096166 -0.15837838 -0.10201027 -0.14990622 0.1655809
-0.0156125 -0.11386011 -0.1273669 -0.2892789 0.077699624 -0.113947466 -0.16012175 -0.15720735
-0.09867483 -0.21599862 -0.10692967 0.18023092 -0.15476501 -0.0145286 -0.10759894 -0.10923236
0.3234354 -0.3372386 -0.09200278 -0.057021063 -0.13297693 0.028756756 -0.13922718 -0.21895638
-0.17875533 0.023537619 -0.07590855 -0.23433773 -0.097202785 -0.15061049 -0.16750997 -0.03015227
-0.12921584 -0.018657178 -0.27222833 -0.11422568 -0.15827589 -0.19400184 -0.22699392 -0.010102785
-0.14946231 0.086238615 -0.19085903 -0.17210096 -0.08733251 0.21844582 0.25550047 -0.072607644
-0.15916078 0.11126826 0.1386401 0.10599703 -0.07793884 -0.026686624 -0.18145975 0.13364895
3.5778747e-05 0.037867136 0.07472717 -0.13298582 -0.15306844 -0.14281553 0.0070709796 -0.13869934
0.37599364 0.028141327 -0.21256341 -0.06181057 -0.10202203 -0.10737924 0.02849482 0.22106163
00000000: 4b64 19be c73a b93c 327b 183e 00a3 b1bd
00000010: fb89 153e 8aa3 eebd 2486 343e 2949 33be
00000020: 6372 f43d 391c 8bbc 4601 973d bf37 64bd
00000030: 78cb 3e3d 1459 073e c7f7 86bd 580c cf3c
00000040: 20cd 31be c2d2 66bd ef4a a53d ab3b 31be
00000050: 1d76 84be cfbe b83d b59c 08be b142 dd3c
00000060: 3065 023e 1a84 bbbd 5d23 2c3e 2f7f c7bd
00000070: 2ac1 65be 2629 db3d ce3e febd ddd9 4abc
00000080: 39c3 04be d440 b63b 04a3 1d3e e8d3 ea3d
00000090: 8f40 f13b 24b4 c8bc 0dee 25be 47a1 2abe
000000a0: 4b3f 6fbd 485d afbd 21ae 9bbd 675b 34bd
000000b0: 10d6 e1bd ba0f bbbd fe74 0dbd 8027 e83b
000000c0: d83e 17be 1790 23be 5457 a9bd 6386 e3bd
000000d0: f12d 22be c3ea d0bd 0481 19be 0a8e 293e
000000e0: 92cb 7fbc 7d2f e9bd 786c 02be 5d1c 94be
000000f0: fb20 9f3d 4a5d e9bd f5f6 23be f7fa 20be
00000100: 0716 cabd be2e 5dbe f1fd dabd 748e 383e
00000110: b87a 1ebe 5d09 6ebc d55c dcbd 37b5 dfbd
00000120: 5399 a53e 8aaa acbe f46b bcbd eb8e 69bd
00000130: 1b2b 08be 4a93 eb3c 9291 0ebe 1a36 60be
00000140: a30b 37be f7d1 c03c f175 9bbd 3bf6 6fbe
00000150: 4112 c7bd a339 1abe bc87 2bbe e501 f7bc
00000160: 2851 04be f0d6 98bc 8361 8bbe 27ef e9bd
00000170: 1313 22be 6ba8 46be 1871 68be 2786 25bc
00000180: a60c 19be df9d b03d 8d70 43be 3c3b 30be
00000190: 63db b2bd 43b0 5f3e f5d0 823e 51b3 94bd
000001a0: 0bfb 22be 9de0 e33d acf7 0d3e f914 d93d
000001b0: 669e 9fbd e89d dabc 96d0 39be 45db 083e
000001c0: 2311 1638 921a 1b3d 8f0a 993d 6f2d 08be
000001d0: f9bd 1cbe 3c3e 12be adb3 e73b 3307 0ebe
000001e0: 3d82 c03e a488 e63c 39aa 59be 152d 7dbd
000001f0: edf0 d0bd a6e9 dbbd f86d e93c fb5d 623e
