week1/model_pytorch_infrared.pth (torch, 20232 bytes, 3 tensors)

model.0.weight f4 [128, 33]
00000000: 1465 dc3d 7511 88bd 0b6d a03d 46c5 07be
00000010: 4508 a9bd cfc2 57be 9374 f3bd 901d 4fbe
00000020: 1882 b43d dcb9 a03d a70d 32be c574 52be
00000030: a4be da3d d9e4 bebd 2201 eabd d88d 9ebd
00000040: 3470 abbd a755 25be 33d1 36be a3aa 86bc
00000050: 20bd 2fbe 475a b73d 82db 11bc b120 44be
00000060: 5adb 7b3b 51a3 8d3d e430 a73d 9c84 00be
00000070: 93c5 233d b3b7 8cbc 839d 08be 848c a4bd
00000080: f4ab 12be 6c6b 283e 9c25 503d 5a48 88bd
00000090: ea79 1a3e 18f9 43bd f8ee e1bd e055 29bc
000000a0: 8082 14bc b8cb 15bd 1a12 0a3e 0e28 0b3e
000000b0: f620 27be 2664 a1bd 55bc d6bd b2a9 03be
000000c0: 0883 9bbc 92d5 273e bc84 be3d 082d eebd
000000d0: 4c30 fbbd 8664 1e3e b275 6abd 1806 cc3d
000000e0: b814 153d d1f3 13be 9412 0cbe cc95 e9bd
000000f0: e458 6b3d 14cf dabd 2059 89bb 10bf 51bc
00000100: 74d1 b73d 6383 a6bd 5513 aa3d 73c6 e3bc
00000110: 4b51 bbbc b486 f63d 3577 13be a567 92bd
00000120: 9408 d63d 0f28 0f3e 6232 123e 6991 16be
00000130: b1b7 a33c cef0 4e3c fc45 523c 957a ba3d
00000140: a4bc 66bc 98b4 ce3d 81cf 0c3e 9d20 253d
00000150: 5799 c93d caa9 e9bd 32c1 e2bc 75b0 09be
00000160: 21cc 53bd 8a52 d4bd d07c 9cbd 8864 0b3e
00000170: 0152 0f3e daf6 113e 4474 b5bd a97f 2e3e
00000180: fd5c 14be cdf8 753d 4d4b 26be 041d bd3d
00000190: 8004 0bbd 8d91 9abd 3c38 063d cef3 8e3d
000001a0: 1688 65bd 9811 9abc 68e2 30bd aa30 cebd
000001b0: 4a06 a5bd 3e39 02be 9014 cbbc 602e f33d
000001c0: 675e 80bd 84e1 2f3e 80fa 313b b8e7 ba3d
000001d0: 94ed 0e3d f080 46bc 7d8f 23be 7939 d4bd
000001e0: 81c2 00be cfea fabd 3010 153d 6a18 65bd
000001f0: 3000 5f3c d0a0 5e3d 76e7 003e ce10 bdbd
00000200: dd28 27be 5074 e33d cc3e ff3d 6409 2fbd
00000210: b439 d23d 12c6 283e cdf0 e3bd 8c52 60bd
00000220: f00f 403d 620f cebd 14cb 203e 145c 3c3d
00000230: 7ca4 aabd d08c cfbc 560e 5bbd 50a5 403d
00000240: fcee 933d 6750 d9bd c307 debd dc5c 023d
00000250: 54fc fc3d 5415 edbd 3008 66bd 4ed2 1dbe
00000260: 4835 a23d 7568 23be 1459 11bd 8c7d a43d
00000270: f84a 5ebd b49a 71bd a0d3 ab3c 7a6a 0abe
00000280: f0f4 5f3c 20e2 8b3c 8881 203d 1cc1 02be
00000290: 98b2 9bbc c2e0 013e c3a8 08be a04c f23d
000002a0: 786e 22bd 347e 303d 3051 1dbc 8c22 db3d
000002b0: c8d9 0ebe c892 61bd a85f b7bc e0f1 0b3d
000002c0: 5e8b 1ebe 708a 233e e4f2 513d 0054 003e
000002d0: 4c78 cc3d 224a 8b3d 2026 9d3d 555c 15be
000002e0: b03a af3d 786f a83d 1d51 d6bd d690 2e3e
000002f0: ca49 2abe 368b 6fbd 019e 2bbe 698e 14be
00000300: 1204 913d bc0c a93d 4228 f3bd fce2 0c3e
00000310: 8aaa 51bd d036 cfbc 1b3d 39bd b2be 15be
00000320: 5318 71bc 4b04 97bd df1f 6abe ba1b 31be
00000330: 00e6 38bd ccf1 d53d f01f abbd 2769 d3bd
00000340: faf1 b2bd e172 ab3d bdd9 e13c 6d3a 48be
00000350: 821b dabd 4785 6cbe 7abd 1bbe 2792 b6bb
00000360: 5a36 7fbd 1708 18be be39 d03c aee2 20be
00000370: ca53 443d ada2 943c 9cc6 80bd 3347 a8bd
00000380: 428d e63d f7d2 a73d b7ee 0ebe 0d32 173d
00000390: 39f6 04be a49b 35be 4667 89bd 83d4 5bbe
000003a0: 727f f1bd ca6e 22be 1671 15be 4c05 1cbe
000003b0: d9a2 6ebd e8d7 b13d eed3 24be b129 d63b
000003c0: a57b 84bb 44f9 d5bd fddd d2bd 7a39 4ebd
000003d0: 69ed 783d faa9 0fbd e990 fcbd b7cc be3d
000003e0: a1df 58be 30e8 a53d 6067 52be 3f98 a0bd
000003f0: d611 77bd 9ca2 4cbd cdad 13bd 1c13 0dbc
0.107614666 -0.06643955 0.07833298 -0.13258848 -0.082535304 -0.21070407 -0.11887469 -0.20226121
0.08813876 0.0784795 -0.1738802 -0.20552357 0.10680893 -0.09320993 -0.11425997 -0.07741898
-0.083710104 -0.16145955 -0.1785324 -0.016438788 -0.17161989 0.08952766 -0.008902432 -0.19153096
0.0038430304 0.06915916 0.08163622 -0.12550586 0.039983343 -0.017177438 -0.13341336 -0.08034614
-0.14323407 0.16447228 0.050817117 -0.06654425 0.15085569 -0.047844976 -0.11031908 -0.010335416
-0.009064317 -0.036571234 0.13483468 0.13589498 -0.16321167 -0.0788043 -0.1048514 -0.12857702
-0.018983379 0.16390064 0.09302661 -0.11629683 -0.12265071 0.15468034 -0.05724115 0.099621
0.036396712 -0.14448477 -0.13678962 -0.114055246 0.05745782 -0.10684028 -0.0041915327 -0.0128019005
0.08975497 -0.08130529 0.083044685 -0.027804589 -0.022865912 0.12037411 -0.14400943 -0.07148675
0.10450855 0.13980125 0.14277032 -0.14703907 0.019985052 0.0126306545 0.012834068 0.09105412
-0.014083061 0.10093039 0.13751031 0.040314306 0.098437004 -0.11409338 -0.027680013 -0.1344622
-0.051708344 -0.103673056 -0.076409936 0.13612568 0.13996126 0.14254323 -0.088600665 0.17040886
-0.14488597 0.060051728 -0.16239662 0.0923405 -0.03393984 -0.07547293 0.032768473 0.06980096
-0.056037985 -0.018807217 -0.043184668 -0.10067876 -0.0805784 -0.12717149 -0.024790078 0.1187408
-0.06268006 0.17175871 0.0027157366 0.09126228 0.03489454 -0.012115702 -0.15972705 -0.103625245
-0.12574197 -0.122518174 0.03639239 -0.055931486 0.013610885 0.05435258 0.12588295 -0.09231721
-0.16324182 0.11106169 0.124631494 -0.042733565 0.10264912 0.16481808 -0.111299135 -0.054766223
0.0468902 -0.10061528 0.15702468 0.04598625 -0.08332154 -0.0253357 -0.05348047 0.047032654
0.07223317 -0.10611039 -0.10841324 0.03182684 0.12352815 -0.11576334 -0.056160152 -0.15412256
0.07920319 -0.15957816 -0.035485342 0.08031759 -0.054270715 -0.058985427 0.020974934 -0.1351718
0.0136692375 0.017075598 0.03918603 -0.12768978 -0.019006059 0.12683395 -0.13345627 0.11831021
-0.039656132 0.043089107 -0.009601876 0.10699949 -0.13950264 -0.055071622 -0.02238448 0.034166217
-0.15482852 0.15970778 0.05125703 0.12532043 0.09983882 0.06801249 0.076732874 -0.14586003
0.085561156 0.08224386 -0.1046469 0.17047438 -0.16629711 -0.05848237 -0.16759492 -0.1450745
0.070808545 0.08254382 -0.11872913 0.13758463 -0.05118803 -0.025294691 -0.04522429 -0.14623526
-0.014715272 -0.07373866 -0.2286372 -0.17295733 -0.04514122 0.1044651 -0.08355701 -0.103227906
-0.087375596 0.08371521 0.027569646 -0.19553538 -0.10649778 -0.23097716 -0.15208998 -0.005571622
-0.062307693 -0.14846836 0.025418159 -0.15711471 0.04793147 0.018143976 -0.06287882 -0.08216705
0.112574115 0.08194535 -0.1395825 0.036912967 -0.12984551 -0.17735153 -0.06709151 -0.21467786
-0.117918864 -0.15862575 -0.1459392 -0.15236396 -0.058260772 0.08683759 -0.1609647 0.0065357317
-0.00404306 -0.10447934 -0.10296247 -0.050347783 0.060773287 -0.03507421 -0.12332327 0.0931639
-0.21179058 0.08100927 -0.20547247 -0.07841539 -0.060319744 -0.049959764 -0.03605442 -0.008610513

model.0.bias f4 [128]
00000000: 8029 68be ea56 8f3d 5c8d 73bd 5841 8abc
00000010: c02f b4bc 5c56 793d 30f2 2ebe 7a13 72be
00000020: 9b92 0fbe c174 baba 6465 07be 9fcf ee3b
00000030: 7898 c23d 5c17 37be 40b7 a2bd 702e ee3d
00000040: e963 d7bd a219 cabd cace 0d3e 80cb 823d
00000050: 1897 2e3d 87e3 01be 8041 93ba 40c7 cd3d
00000060: bcf0 d53d ff2a 5a3d e588 14be 1338 5fbe
00000070: c39b c33d 393d 63be 8393 ddbd 0cf1 17bd
00000080: 4c88 773d c0da 4abc 2050 cf3d 3873 913d
00000090: 5683 0b3e 2cf4 843d 18cc 55bd 58e3 6dbc
000000a0: 12f2 2bbe c368 08be 1383 ea3d 282e 04be
000000b0: 1df0 52be 3b45 9dba 7c82 263e b9a9 29be
000000c0: c7c2 22be 8c46 c9bd f46f a1bd 20f0 243c
000000d0: db33 f8ba f354 b93b e0cc 9bbb 0136 af3d
000000e0: f807 d53c d654 243e d0ea 993d 5e11 30be
000000f0: 6ca7 903d c876 c1bc a07e 01be 3636 043e
00000100: c159 9a3d 80e3 4dbb 1c09 10bd 8c32 0e3e
00000110: 93bf c1bd c2f2 32be e868 b53d 40c0 72bc
00000120: 44c5 5dbe 4068 c2bd a59f 163c f0e3 8e3d
00000130: a06a f43b 3740 cebd 1888 2abd f01b a83d
00000140: 834d 3bbe 1078 efbd 3a8b 193e 8dd8 2bbe
00000150: ac9e 24be 66dc 5ebe 7407 dbbd 16f6 8cbd
00000160: 2c27 19be 8e41 cd3d c556 56be f4a0 41be
00000170: 0fe0 02be 967d 93bd 7c61 303e 8d03 e43d
00000180: 07aa 37be 85c0 313c e20c 04bd 76bd 363e
00000190: 352b fd3d b72c ff3c f281 e83d a1bd c2bd
000001a0: ac2d 613d 9e24 17be 966f 383d bc79 36be
000001b0: 3056 71bc 8e22 9abd de4d 58bd 809d 65bb
000001c0: d006 3fbe 1667 49bd f3eb 68be e0d9 c33d
000001d0: 2ac0 1d3e f6fe 3fbe 4b92 06be 3099 e8bc
000001e0: 2584 f93b 75ab 66bd b413 2bbe 184d 23bd
000001f0: 102a 2f3e e074 a63d 87e1 d0bd dd1a c0bd
-0.22672081 0.069989994 -0.059460983 -0.016876861 -0.021995425 0.060873374 -0.17084575 -0.23640242
-0.1402077 -0.0014225469 -0.13222271 0.007287934 0.09501737 -0.17880005 -0.079451084 0.11629951
-0.10517103 -0.0986817 0.13848415 0.06386471 0.042624563 -0.12684451 -0.001123473 0.100477695
0.10446307 0.05326366 -0.14505346 -0.21798734 0.095511936 -0.22191323 -0.10819151 -0.037095115
0.060432717 -0.012381256 0.101227045 0.07102054 0.1362432 0.064918846 -0.052196592 -0.014519535
-0.16791561 -0.13321213 0.11450782 -0.12908232 -0.20599408 -0.0011998782 0.16260713 -0.1656865
-0.15894614 -0.09827909 -0.078826815 0.010067016 -0.0018936353 0.0056558787 -0.0047546476 0.08555222
0.026004776 0.16047987 0.0751549 -0.17194125 0.07063183 -0.02361621 -0.1264596 0.12911305
0.075366504 -0.0031416118 -0.035164937 0.1388647 -0.09460368 -0.17475417 0.088579 -0.014816344
-0.21657282 -0.0949254 0.009193336 0.069770694 0.0074589998 -0.10070842 -0.041633695 0.08208454
-0.18291287 -0.11692822 0.14994517 -0.16781826 -0.16076154 -0.21763763 -0.10694781 -0.06882875
-0.14956349 0.10022269 -0.20931537 -0.18909055 -0.12780784 -0.07201688 0.17224687 0.1113349
-0.17935954 0.010849123 -0.03223885 0.17845711 0.12361757 0.031149251 0.1135291 -0.09508825
0.054975197 -0.14760062 0.04502829 -0.17819875 -0.014730021 -0.07526122 -0.052808635 -0.0035036504
-0.18654943 -0.049170576 -0.22746257 0.09563041 0.15405336 -0.18749604 -0.13141744 -0.028393358
0.00761463 -0.056315858 -0.16706735 -0.039868444 0.1710589 0.08127761 -0.10199266 -0.09380124

model.2.weight f4 [1, 128]
00000000: fff9 58bd 3082 7ebd fd33 4c3c eacb 8ebd
00000010: d8b0 d63c d0c9 36bc 6a3a c0b9 b55c a8bc
00000020: 103f a73b 9d94 ae3c 62ae a3bb e15a 9d3b
00000030: 4a63 273d 4788 8ebc ca79 1f3d 9650 2f3d
00000040: 54de 023d 071f c03c 58af e93c 3054 99bc
00000050: e8a2 b83c d9e7 1e3c 007a 5bba 4027 c2ba
00000060: 1061 223d 20c3 393d 2a3c 113d d8e9 e83c
00000070: 5828 c6bc 5fb6 753d 93b4 4fbd 9a1c ad3d
00000080: 6a6b 613d 6ab0 103d 2012 92bc fc1b d0bc
00000090: dd5a 873d 8412 a2bd e60d d33c fdda 9dba
000000a0: e13e a7bc ffe5 62bd e1b6 403d e8ce 963d
000000b0: e1bd 2a3d 86f3 003d 786c 1abc 6a9b 2abd
000000c0: 15dd bb3b 965e aa3d c3bb abbd f807 8d3c
000000d0: 9d55 ba3b e219 393d 72d9 6b3d 438b a6bb
000000e0: 300e cb3b 69f0 b23d 1014 cf3b 0de8 533d
000000f0: 5ccc 033c 524c f83b 0808 a5bc 0a3d 653d
00000100: 5d2b 593d 9ae8 eebc 90fb f33b 446e 8bbc
00000110: 46c5 6f3d 30a2 03bd c6f4 583d 400c b83a
00000120: 7e28 773c 629d 80ba 51b4 253c 7779 973d
00000130: fe2d 91bd dceb ac3c bc84 08bc 0edf 833d
00000140: 7d63 3c3c f68c 8b3c 10f1 b4bc b526 4bbd
00000150: faac 103d 5297 4abd 991f 053d f633 dbbc
00000160: d2c5 20bc 8322 333d 9e27 96bb 3275 4ebc
00000170: 0d33 a23d 1f3d f23b 91f4 21bd a93c 43bc
00000180: fe93 3dbb 10f5 b03d afc7 5c3d 97c4 243d
00000190: b6e4 b6bc 80c4 c238 fab4 833d 6ee2 223c
000001a0: 209f cf3b d06c c93b b31b 203d a2b4 303d
000001b0: 5468 fa3c 442b 533d 74fc 423d 091e 8bbd
000001c0: 1991 723c 2b64 a23d 9578 043c a01f 18bc
000001d0: 6294 8b3c 6130 7cbb 6b88 42bb b807 0abc
000001e0: 2817 9bbb da85 4c3c fa86 0d3d de4c 393d
000001f0: 4b14 9dbd c3c4 8a3d 4aa3 79bb 4717 8a3d
-0.05297279 -0.062135875 0.012463567 -0.06972487 0.026207373 -0.011156514 -0.00036664616 -0.020552019
0.005103953 0.021311099 -0.0049951533 0.0048020934 0.040866174 -0.017398966 0.038934506 0.042801462
0.03195031 0.023452295 0.028525993 -0.018716902 0.022538617 0.0096988315 -0.00083723664 -0.0014812723
0.039643347 0.0453521 0.035457768 0.028431818 -0.02418916 0.059988376 -0.05070932 0.08452721
0.05503408 0.03532449 -0.017830908 -0.025403969 0.06609128 -0.07913688 0.025763463 -0.0012043413
-0.020415725 -0.055395123 0.047049407 0.07363683 0.04168499 0.031482242 -0.009425275 -0.04165212
0.005733142 0.08318822 -0.08385422 0.017215714 0.0056864754 0.0451907 0.05758042 -0.0050825193
0.0061967596 0.08737261 0.0063195303 0.051734973 0.008044329 0.0075774575 -0.020145431 0.055966415
0.05301987 -0.029163647 0.00744576 -0.017020352 0.058537744 -0.032137096 0.05296781 0.0014041737
0.015085338 -0.0009812529 0.010113792 0.073962145 -0.070888504 0.02110856 -0.008332428 0.06439029
0.011498329 0.017034989 -0.022087604 -0.04959746 0.035321213 -0.049460717 0.032500837 -0.026758175
-0.009812789 0.043734085 -0.0045823595 -0.012601184 0.079198934 0.00739254 -0.039539877 -0.011916318
-0.0028927322 0.08640492 0.05390137 0.040226545 -0.022325855 9.287242e-05 0.06431003 0.00994168
0.006336108 0.0061470047 0.039088916 0.043141015 0.030567326 0.051554933 0.04760404 -0.06792838
0.014805102 0.07929262 0.00808539 -0.009284884 0.017038528 -0.0038480985 -0.0029683362 -0.008424692
-0.004732985 0.012483085 0.03455255 0.045239322 -0.07669886 0.067758106 -0.0038091713 0.06742721
