week2/model_pytorch_infrared.pth (torch, 142260 bytes, 7 tensors)

model.0.weight f4 [128, 11]
0	0xbe08bc1f	-0.13353013
1	0x3e45a681	0.19301797
2	0x3e68a4bf	0.22719096
3	0x3e758c00	0.23979187
4	0x3c3fff28	0.011718549
5	0x3e5fc10a	0.21850982
6	0xbe50f40e	-0.204056
7	0xbe8b5bdc	-0.2721852
8	0x3e59779f	0.21237038
9	0x3dd2491c	0.10267851
10	0xbe889024	-0.2667247
11	0xbe64140f	-0.22273277
12	0x3d8594fe	0.06522559
13	0x3dc1cfa8	0.094634354
14	0xbfcf1139	-1.6177131
15	0xbf341480	-0.7034378
16	0x3ebf76a3	0.373952
17	0x40f36974	7.6066227
18	0x3f2e072e	0.67979705
19	0xbe963cea	-0.2934335
20	0xbe1cb18a	-0.15302101
21	0x3e62b3aa	0.22138849
22	0x3e154b84	0.14579588
23	0xbde07886	-0.10960488
24	0xbdc0fcce	-0.09423219
25	0xbe451c1c	-0.19249004
26	0xbc3248a0	-0.010881573
27	0xbe8e47d4	-0.27789176
28	0xbdc432da	-0.09580012
29	0x3e6cd7b0	0.23129153
30	0x3e48da34	0.19614488
31	0xbd1d4ab0	-0.038401306
32	0x3e931e72	0.28734165
33	0x3e4aa042	0.19787696
34	0xbd817b62	-0.063223615
35	0xbdcbe80a	-0.09956367
36	0xbda9df74	-0.082945734
37	0xbd927b06	-0.07152371
38	0xbd9fd9a6	-0.07805185
39	0xbd7a3dbc	-0.06109403
40	0xbe3f0248	-0.18653214
41	0x3d6e4260	0.05816877
42	0xbd922664	-0.07136229
43	0xbdd007aa	-0.10157712
44	0xbe174d38	-0.1477555
45	0x3e9d457e	0.3071708
46	0xbdc0fc24	-0.09423092
47	0xbfc706f1	-1.5548993
48	0xbf002697	-0.50058883
49	0x3ee5ed41	0.44907573
50	0x40f7b48a	7.7407885
51	0x3ed293ed	0.41128483
52	0xbe58e91e	-0.21182677
53	0x3da062a9	0.07831318
54	0x3e8f945e	0.28042883
55	0xbd78de0b	-0.06075863
56	0xbeb82b52	-0.3597055
57	0x3dd075db	0.10178729
58	0xbe97b485	-0.29629913
59	0xbdd587af	-0.1042627
60	0xbd49e93e	-0.049294703
61	0x3e2efdf6	0.17089066
62	0x3e5fa61c	0.2184071
63	0xbc25b067	-0.010112858
64	0x3e338e7b	0.1753482
65	0xbe916a6e	-0.28401512
66	0xbbaa3ac0	-0.005194992
67	0xbdb69a22	-0.08916117
68	0xbe929c44	-0.28634846
69	0x3e075dba	0.13219348
70	0xbcff84e0	-0.03119129
71	0x3dd2be4c	0.102902025
72	0xbe77a60c	-0.24184436
73	0x3e0ef0ca	0.13959041
74	0x3e983b7e	0.2973289
75	0x3de46294	0.11151615
76	0xbe503b04	-0.20335013
77	0x3e816529	0.25272492
78	0xbe418815	-0.18899567
79	0x3df93bf6	0.1216964
80	0x3cdd7177	0.027031643
81	0xbdadacdf	-0.08480238
82	0xbe8a5a62	-0.27022082
83	0x3e4db32c	0.2008788
84	0x3d299fe7	0.04141226
85	0x3e7f9ba6	0.24961719
86	0xbe55a912	-0.20865276
87	0xbe070dd9	-0.13188876
88	0x3db580bc	0.08862445
89	0x3db04730	0.08607328
90	0x3d6aee2f	0.057356056
91	0xbfbbf32e	-1.4683588
92	0xbf14df9c	-0.581537
93	0x3ef6e8b3	0.4822441
94	0x40f9e8a5	7.809649
95	0x3e75cb17	0.24003254
96	0x3e1e5869	0.15463413
97	0xbf0dfe5b	-0.5546624
98	0x3ec709e0	0.38874722
99	0xbd24cf18	-0.040236562
100	0xbe887bda	-0.2665699
101	0xbde145ae	-0.109996185
102	0x39676800	0.0002206862
103	0xbd7e16a0	-0.062033296
104	0xbc670b00	-0.014101744
105	0x3cdb10c0	0.026741385
106	0x3e33a570	0.17543578
107	0xbe2fbeb9	-0.17162599
108	0xbd7edfe4	-0.062225237
109	0xbcc5c5d0	-0.024142176
110	0x3e9056e2	0.28191286
111	0xbde972c6	-0.113988444
112	0xbe88cafc	-0.26717365
113	0xbe805178	-0.25062156
114	0x3e79da3c	0.24399656
115	0x3dee3528	0.116312325
116	0xbdf34110	-0.11877644
117	0xbe35c2ac	-0.17750043
118	0x3e3a97bc	0.18221945
119	0x3dc211bc	0.09476039
120	0x3d9fbb70	0.07799423
121	0x3e597ac3	0.21238236
122	0xbe07f43b	-0.1327676
123	0x3db87421	0.09006525
124	0xbdb9e53e	-0.090769276
125	0xbe3532da	-0.1769518
126	0x3cd1b6c9	0.025599854
127	0xbe717d58	-0.23582971
128	0xbdbfbc3a	-0.09362073
129	0xbd640706	-0.05567076
130	0x3941468b	0.00018432194
131	0x3d155e28	0.036466748
132	0xbdc6179c	-0.09672472
133	0xbb281680	-0.0025648177
134	0xbc5fe5e0	-0.013665646
135	0x3dab8b18	0.083761394
136	0xbe82ac05	-0.25521865
137	0xbb600480	-0.003418237
138	0xbe2f4e6e	-0.17119762
139	0x3e97f772	0.29680973
140	0xbd946118	-0.07245082
141	0xbe8f926e	-0.28041404
142	0xbd8d9742	-0.06913616
143	0x3e90d446	0.28286952
144	0x3d53a510	0.051671088
145	0xbda00472	-0.07813348
146	0x3e41c7c6	0.18923864
147	0xbe2748fa	-0.16336432
148	0x3e8a66fe	0.27031702
149	0x3cdf6ec0	0.02727449
150	0xbdc95862	-0.09831311
151	0x3e3d3542	0.18477347
152	0xbe583dbd	-0.21117301
153	0xbe870514	-0.26371062
154	0xbe8a0f9c	-0.26965034
155	0xbe1a0ed8	-0.15044725
156	0xbc5230e0	-0.0128290355
157	0xbc232200	-0.009956837
158	0xbe41ee48	-0.18938553
159	0xbe201153	-0.15631609
160	0xbe86c1b3	-0.26319656
161	0x3d93bb9c	0.07213518
162	0x3e17888c	0.14798182
163	0xbc096d40	-0.008387864
164	0xbe61936e	-0.22028896
165	0x3d45d658	0.048300117
166	0xbe031096	-0.12799296
167	0xbe740acd	-0.23832245
168	0x3e77a590	0.24184251
169	0xbd31c9c8	-0.043405324
170	0xbd5b856c	-0.053594038
171	0x3d62cf18	0.05537328
172	0x3e757e50	0.23973966
173	0x3d8776cc	0.066144556
174	0x3e8c7fbc	0.27441204
175	0xbe7f4841	-0.24929906
176	0xbe8c8a44	-0.27449238
177	0xbd6ddd24	-0.058072224
178	0x3e090a3d	0.13382812
179	0xbfcbe442	-1.5929034
180	0xbec02cfa	-0.37534314
181	0x3f0f05b9	0.5586811
182	0x40f4f148	7.6544533
183	0x3f115831	0.56775194
184	0xbe46ceb2	-0.19414786
185	0xbd0abf0e	-0.03387361
186	0x3f13c652	0.5772449
187	0x3e2210d5	0.15826733
188	0xbe07ef51	-0.13274886
189	0x3e69e11e	0.22839782
190	0xbf12899f	-0.57241243
191	0xbefa051f	-0.48832032
192	0x3e46d397	0.19416653
193	0x409fb227	4.990497
194	0x3e614c2d	0.22001715
195	0xbe8021d7	-0.25025818
196	0xbed6560a	-0.41862518
197	0x3c86088f	0.016361503
198	0xbe952995	-0.29133287
199	0xbdaa747f	-0.08323001
200	0x3d96180c	0.07328805
201	0x3de4b9f3	0.111682795
202	0xbd02c080	-0.031921864
203	0x3df2fbff	0.11864471
204	0xbfa923dd	-1.321407
205	0x3d256ee5	0.04038896
206	0xbe562cd8	-0.20915544
207	0xbdc122b0	-0.09430444
208	0x3d0d46f8	0.03449151
209	0x3e1d0a72	0.15336016
210	0x3e8310fd	0.255989
211	0xbe17f78d	-0.14840527
212	0xbe5ee9d1	-0.21768881
213	0xbdbe1e4c	-0.092831224
214	0xbc95a8d8	-0.018268988
215	0x3fd03840	1.6267166
216	0xbdbb8130	-0.091555
217	0xbe6a13e0	-0.22859144
218	0xbe237e92	-0.15966251
219	0xbe65a79d	-0.2242722
220	0xbe7ddaf9	-0.24790563
221	0xbe83650e	-0.25663036
222	0xbe1b3e06	-0.15160379
223	0x3dac6254	0.08417192
224	0x3c938920	0.018009722
225	0x3e52f02c	0.20599431
226	0x3d80bdd8	0.0628621
227	0x3e05fcc2	0.130847
228	0xbe78d1c4	-0.24298769
229	0x3e846246	0.25856227
230	0x3d10fbd0	0.035396397
231	0xbe51260b	-0.20424668
232	0x3e4ffd2e	0.20311424
233	0xbd3dff9b	-0.046386342
234	0xbedf8fa3	-0.43664274
235	0xbeadee5b	-0.33970913
236	0xbddfc994	-0.1092712
237	0x405b7f12	3.4296308
238	0x3e455c13	0.19273405
239	0xbc14fa8b	-0.009092937
240	0xbe950a8d	-0.29109612
241	0xbdcdbde0	-0.100459814
242	0x3d912266	0.07086639
243	0x3d3c6624	0.045995846
244	0xbe000516	-0.1250194
245	0x3e28aa5d	0.16471238
246	0x3d440b4c	0.047862336
247	0xbe932827	-0.2874157
248	0x3de0ed4e	0.10982762
249	0x3dd00585	0.10157303
250	0x3e2fa173	0.17151432
251	0xbc086cd4	-0.008326728
252	0xbe619bf4	-0.22032148
253	0x3e4c161c	0.19930309
254	0x3e0a2d0e	0.1349375
255	0xbab868a6	-0.0014069274

model.0.bias f4 [128]
0	0x3db3f6f2	0.087873355
1	0xbdae7285	-0.085179366
2	0xbd997914	-0.07493797
3	0xbe2b3c13	-0.16722135
4	0xbd3bf13f	-0.045884367
5	0xbd695cce	-0.05697327
6	0x3d64df20	0.05587685
7	0xbe3c0f05	-0.18365104
8	0xbe00dd80	-0.12584496
9	0x3daf5268	0.085606396
10	0x3e04a9c0	0.1295538
11	0xbe0160bb	-0.12634556
12	0xbd048d88	-0.032361537
13	0x3df5b7ec	0.11997971
14	0x3b1fea80	0.0024401248
15	0x3e1825f4	0.14858228
16	0xbe584d94	-0.21123344
17	0xbd7d9ccd	-0.061917115
18	0xbe5bdccf	-0.2147095
19	0xbb83ec4d	-0.004025972
20	0x3cdf7e40	0.02728188
21	0x3bb670a0	0.005567625
22	0xbdb971d2	-0.090549126
23	0xba61f5d6	-0.0008619701
24	0x3e5f1d00	0.21788406
25	0xbe5a3c56	-0.21312079
26	0xbe291620	-0.16512346
27	0x3b3ec98d	0.0029111833
28	0x3e5e4a65	0.21708067
29	0xbe0711fb	-0.13190453
30	0x3d9e5f0f	0.07732975
31	0xbe9c0ba6	-0.30477637
32	0x3e8f9a62	0.28047472
33	0x3d9fcee9	0.07803137
34	0xbdba5360	-0.09097934
35	0xbd361d08	-0.04446128
36	0xbd9c7c70	-0.07640922
37	0xbe21e2f6	-0.15809235
38	0xbe1e11ca	-0.15436473
39	0xbc4f33e4	-0.012646649
40	0x3d8e796d	0.06956754
41	0x3dcbe575	0.09955875
42	0x3e474284	0.19458967
43	0xbd86a152	-0.06573738
44	0x3e20e0a3	0.15710692
45	0xbd00da70	-0.03145832
46	0x3da45964	0.080248624
47	0x3e67d9c7	0.22641669
48	0x3dbfe8fe	0.093706116
49	0x3e96b9b6	0.2943856
50	0x3e5a3fbc	0.21313375
51	0x3e0229bc	0.12711233
52	0x3d7f609b	0.06234799
53	0xbddfd4be	-0.10929249
54	0x3d825f10	0.06365788
55	0xbe926345	-0.28591362
56	0xbdbc241e	-0.09186576
57	0xbdca4361	-0.09876133
58	0xbd584994	-0.052804545
59	0xbeb77ce0	-0.3583746
60	0x3e7f35ce	0.24922869
61	0xbc5fff40	-0.013671696
62	0xbe9413b5	-0.28921285
63	0xbb482580	-0.003053993
64	0xbe9e6c4e	-0.30942005
65	0xbeb81ce6	-0.35959548
66	0x3e3289b4	0.17435342
67	0xbe5a1f7f	-0.21301077
68	0x3e600537	0.2187699
69	0xbdcc547f	-0.09977054
70	0xbd118dc8	-0.035535604
71	0x3e263028	0.16229308
72	0x3daabde1	0.08336998
73	0x3e21121a	0.15729561
74	0x3c771469	0.01508055
75	0x3e078c54	0.13237125
76	0xbe8abfd8	-0.2709949
77	0xbe49fba2	-0.19724897
78	0x3e589134	0.2114914
79	0xbe2fe996	-0.1717895
80	0xbe060456	-0.13087592
81	0xbe6eeb04	-0.23331839
82	0x3c807620	0.015681326
83	0xbe2cdab7	-0.16880308
84	0xbd629e8f	-0.055326995
85	0x3e61618c	0.22009867
86	0xbe0940f3	-0.13403682
87	0xbeb1a7b7	-0.3469827
88	0x3dcdc8b8	0.1004805
89	0xbea4892d	-0.32135907
90	0xbe78c366	-0.24293289
91	0x3d8ae86c	0.06782612
92	0x3e98d8da	0.29852945
93	0x3e2328c1	0.15933515
94	0xbea8c442	-0.32962233
95	0x3e395bad	0.18101378
96	0x3e6c9e44	0.23107249
97	0x3e8fd602	0.28092963
98	0x3cd5117c	0.026009314
99	0xbe2f7576	-0.17134652
100	0xbe81cbf1	-0.25350907
101	0xbe8ab62e	-0.27092117
102	0xbb8d2c59	-0.004308265
103	0xbe8de938	-0.27716994
104	0xbb49f500	-0.0030816197
105	0x3e91691e	0.2840051
106	0x3d1853e8	0.037189394
107	0xbd56d6d4	-0.05245097
108	0x3d25b630	0.04045695
109	0xbe0a5264	-0.13507992
110	0x3e297584	0.16548735
111	0x3d388680	0.045050144
112	0x3e090874	0.13382131
113	0x3e13a706	0.14419183
114	0xbded4676	-0.11585705
115	0x3c41f005	0.01183701
116	0x3d111e80	0.035429478
117	0xbe0fc1a1	-0.14038707
118	0xbcbb0069	-0.022827344
119	0xbe3690d2	-0.17828682
120	0xbe47b40e	-0.19502279
121	0xbebb5828	-0.36590695
122	0xbd26f7fa	-0.040763833
123	0xbe896c32	-0.2684036
124	0xbe45afbf	-0.19305323
125	0x3e06f2bc	0.13178533
126	0xbe869106	-0.2628252
127	0xbe8f90c2	-0.2804013

model.2.weight f4 [128, 128]
0	0xbdf3b15e	-0.118990645
1	0xbda89c06	-0.08232884
2	0xbd958718	-0.07301158
3	0x3c240e88	0.01001323
4	0xbd3d5f23	-0.046233308
5	0xbb0f4380	-0.0021860301
6	0xbc22e610	-0.0099425465
7	0xbdfb2fc2	-0.122649685
8	0xbdb4801f	-0.088135
9	0x3d02578a	0.031821765
10	0x3c8b1c3c	0.016981237
11	0xbd97db4b	-0.07414874
12	0xbd8ac901	-0.0677662
13	0x3d7e73f6	0.062122308
14	0x3d45c606	0.048284553
15	0xbd49a909	-0.04923347
16	0x3be18b70	0.0068830773
17	0xbda00064	-0.078125745
18	0xbc7b1d86	-0.015326863
19	0xbd483558	-0.048878998
20	0xbd21cc59	-0.03950152
21	0x3cdbfffe	0.026855465
22	0xbdc6d510	-0.09708607
23	0xbdb3cd3a	-0.08779378
24	0xbabef071	-0.0014567507
25	0xbdfbe3dd	-0.12299321
26	0xbda2ffe0	-0.079589605
27	0xbd05857a	-0.032597996
28	0xbdba780d	-0.09104929
29	0x3d35158a	0.044209994
30	0xbdd12fdd	-0.10214207
31	0xbddb48db	-0.107072555
32	0x3c760f10	0.01501824
33	0xbd301129	-0.042985115
34	0x3d511af2	0.051051088
35	0xbd865be6	-0.06560497
36	0xbcbe02c4	-0.023194678
37	0xbd906925	-0.07051305
38	0xbde63d52	-0.11242165
39	0x3d157920	0.036492467
40	0x3dad2599	0.08454437
41	0xbda8102e	-0.08206211
42	0xbdf7ef7b	-0.12106224
43	0xba023a74	-0.00049678166
44	0xbc1d2650	-0.009591654
45	0xbddc5924	-0.1075919
46	0xbd5881fe	-0.052858345
47	0xbdc7b34a	-0.097509935
48	0xbdd07bc3	-0.10179856
49	0xbcfbfabe	-0.030759212
50	0xbd5b4c36	-0.053539477
51	0x3ae01580	0.0017096251
52	0xbce4fcb7	-0.027952535
53	0x3da806e3	0.082044385
54	0xbcc9a58d	-0.024615074
55	0x3dabedd5	0.08394972
56	0xbe078617	-0.13234745
57	0xbd2f3e88	-0.042784244
58	0x3b336d40	0.002737835
59	0xbde8fb93	-0.11376109
60	0xbd30e483	-0.043186676
61	0x3c8f757b	0.017512074
62	0xbd869020	-0.065704584
63	0xbda944f0	-0.08265102
64	0xbdd69358	-0.10477322
65	0xbd17e12a	-0.037079968
66	0x3daaa7e3	0.08332803
67	0xbc912fa6	-0.017722916
68	0xbe0dcc72	-0.13847521
69	0xbdd24cb9	-0.1026854
70	0x3be10195	0.0068666437
71	0xbda58456	-0.08081882
72	0x3ce6a259	0.028153585
73	0x3d615b42	0.05501867
74	0xbe144d0d	-0.14482518
75	0x3d35dc26	0.044399403
76	0xbdc32d9b	-0.09530183
77	0xbc8ffd34	-0.017576791
78	0x3c837588	0.016047254
79	0x3c208149	0.009796449
80	0xbda58879	-0.08082671
81	0x3a635aac	0.0008672874
82	0x3d04afd8	0.03239426
83	0xbd8bb30b	-0.06821259
84	0xbdeb1cd0	-0.11480105
85	0x3db100f1	0.08642758
86	0xbe163fdc	-0.14672798
87	0xbd91824f	-0.071049325
88	0xbd168d95	-0.036756117
89	0xba488b13	-0.0007650118
90	0x3cb0415c	0.02151554
91	0x3d33d5a6	0.043904923
92	0xbc8997b0	-0.016795963
93	0xbddde5a8	-0.10834819
94	0xbb99f68e	-0.004698581
95	0x3b095bbd	0.0020959221
96	0x3d54f17e	0.051988117
97	0x3b3b1b40	0.0028550178
98	0xbe0e2650	-0.13881803
99	0x3c7f4a7f	0.015581726
100	0xbd2abf25	-0.041686196
101	0xbe05e30d	-0.13074894
102	0x3c55820b	0.013031493
103	0xbd99c41b	-0.07508107
104	0xbd59b033	-0.053146552
105	0xbd041eb5	-0.032255847
106	0x3dacdbc5	0.08440355
107	0x3cf552b8	0.02994667
108	0x3dadd76b	0.08488353
109	0xbc6f31a5	-0.0145992385
110	0xbde883cf	-0.113532655
111	0xbc30f2f8	-0.010800116
112	0x3bea6770	0.007153444
113	0xbd990d5b	-0.074732505
114	0x3c8d2f90	0.017234594
115	0x3ce232ff	0.027612207
116	0xbb50f7a0	-0.0031885877
117	0x3d9e9a4b	0.07744273
118	0xbd5be295	-0.053682882
119	0xbb9a1760	-0.0047024935
120	0x3ca442e4	0.020051427
121	0xbd4c3f6f	-0.049865182
122	0xbe01dd07	-0.12681971
123	0xbdc8eb5f	-0.098105185
124	0xbdff00dd	-0.124513365
125	0xbd47a1cf	-0.048738297
126	0xbd987773	-0.07444658
127	0xbd7eb0e4	-0.062180415
128	0x3bc73d25	0.006080287
129	0xbd5f547a	-0.054523923
130	0x3c3e2680	0.011605859
131	0xbd5c8c1c	-0.053844556
132	0xbd9e9074	-0.07742396
133	0x3b7405fa	0.0037235008
134	0x3d4ab922	0.049492963
135	0x3b41b5a9	0.002955774
136	0xbd9756f5	-0.073896326
137	0xbd8cff07	-0.0688458
138	0xbd05af46	-0.032637857
139	0xbe0b2a32	-0.13590315
140	0x3d67b236	0.05656644
141	0xbd8d827c	-0.069096535
142	0xbd354c01	-0.044261936
143	0xbd541acc	-0.051783368
144	0xbd9958d3	-0.07487645
145	0xbd85a751	-0.06526054
146	0xbc5a92d0	-0.013340667
147	0x3cd88dde	0.026434835
148	0xbdabe0d1	-0.0839249
149	0xbd5ad05d	-0.053421367
150	0x3cc25f6e	0.023727145
151	0xbe0f9ad8	-0.14023912
152	0xbc236ec3	-0.009975138
153	0xbe05f9e2	-0.13083604
154	0xbdc32359	-0.095282264
155	0xbceb6fa5	-0.02873976
156	0xbcc3cdef	-0.023901908
157	0x3ce5992c	0.02802714
158	0xbd8c9863	-0.06865003
159	0xbca48f39	-0.020087825
160	0xbbc2e290	-0.0059474185
161	0x3ccd58ca	0.025066752
162	0xbd477e83	-0.048704635
163	0x3daa85f5	0.083263315
164	0x3c87c790	0.016574651
165	0x3d2c5322	0.04207147
166	0xbda008ae	-0.078141555
167	0xbd07f954	-0.033196762
168	0xbe0c6fa3	-0.13714461
169	0xbe0ddd04	-0.13853842
170	0xbd7d199e	-0.06179201
171	0xbe0d6ab3	-0.13810234
172	0xbdbce7b7	-0.092238836
173	0xbdb8263d	-0.089916684
174	0xbc5e7893	-0.013578552
175	0xbe152595	-0.14565118
176	0xbe06315d	-0.13104768
177	0xbd91c10c	-0.07116899
178	0xbb82f5d0	-0.0039965883
179	0x3da1bfd1	0.07897914
180	0xbd6c3edc	-0.057677135
181	0xbd65897d	-0.056039322
182	0xbe021a01	-0.12705232
183	0xbd7e1364	-0.06203021
184	0x3ca66413	0.020311391
185	0xbcb37523	-0.021906441
186	0x3ce20b64	0.027593322
187	0xbd9b7f22	-0.07592608
188	0xbd38be52	-0.04510338
189	0x3c7b85e6	0.015351748
190	0xbcd5b5f4	-0.026087739
191	0x3b973ee0	0.0046156496
192	0xbb6f6311	-0.0036527554
193	0xbe0cc4de	-0.13746974
194	0xbd27ccb7	-0.040966716
195	0xbcb7b1c1	-0.022423627
196	0xbe14275d	-0.14468141
197	0xbda492fd	-0.08035848
198	0xbe052ba0	-0.13004923
199	0xbdd5380a	-0.10411079
200	0x3b0fc2f3	0.0021936267
201	0xbdaf63fa	-0.08563991
202	0xbdd7ada7	-0.105311684
203	0x3d83f3ad	0.06442962
204	0xbcd72c3f	-0.026266215
205	0x3cf7aa6c	0.03023263
206	0xbcc00f54	-0.023444809
207	0x3ab9c460	0.0014172904
208	0xbca4f2ac	-0.020135246
209	0xbdd05fc5	-0.101745166
210	0x3cde6c48	0.027151242
211	0xbd1c52ba	-0.03816483
212	0x3c2e992a	0.010656634
213	0x3bb342a0	0.005470589
214	0x3cc12429	0.023576813
215	0xbdbc952a	-0.09208138
216	0xbd8874cb	-0.066629015
217	0xbe14b616	-0.14522585
218	0xbcaae494	-0.020860948
219	0xbd11dcaa	-0.035610832
220	0x3d2f30be	0.042771094
221	0xbc073d37	-0.008254341
222	0xbd0e4040	-0.034729242
223	0xbb738d7f	-0.0037163196
224	0xbd9b881b	-0.075943194
225	0x3d21c62e	0.03949564
226	0xbd8086a8	-0.06275684
227	0xbd8a0095	-0.06738392
228	0xbd9d1569	-0.07670099
229	0xbda9f418	-0.0829851
230	0xbdc222c8	-0.0947929
231	0xbd0ba7c4	-0.03409554
232	0x3d9b9b43	0.07597973
233	0x3cc6fecc	0.024291418
234	0x3d944f1b	0.07241651
235	0x3d4d989e	0.050194375
236	0xbd07a66f	-0.033117708
237	0xbca7f737	-0.020503623
238	0xbdd04d35	-0.10170976
239	0x3d6e2f46	0.058150552
240	0xbb69ba20	-0.0035663918
241	0xbd2c890a	-0.042122878
242	0xbd055019	-0.03254709
243	0xbc4fe947	-0.012689895
244	0xbbf22340	-0.007389456
245	0xbd8cd6d0	-0.0687691
246	0x3a26aed4	0.0006358449
247	0xbd65b9b7	-0.056085315
248	0x3c813d70	0.015776366
249	0xbdde7c10	-0.10863507
250	0x3b3e193d	0.0029006742
251	0xbda65312	-0.08121313
252	0xbca991c5	-0.020699391
253	0x3d086ab4	0.033304885
254	0x3db04b3b	0.08608099
255	0xbd2d091a	-0.042245008

model.2.bias f4 [128]
0	0x3a0e2ee2	0.0005423856
1	0xbdca8ee9	-0.09890539
2	0xbd99220b	-0.07477196
3	0x3dab3f93	0.08361735
4	0x3cadec74	0.021230914
5	0x3cb572ca	0.022149462
6	0xbcbb2288	-0.022843614
7	0xbe08923a	-0.13337031
8	0xbda67ab6	-0.08128874
9	0xbdc21128	-0.094759285
10	0xbc3bcced	-0.011462432
11	0xbd519c6a	-0.05117456
12	0xbd8867f0	-0.066604495
13	0xbd93429b	-0.07190438
14	0x3c162646	0.009164399
15	0xbdc4c367	-0.096075825
16	0x3b4a4cea	0.0030868598
17	0xbe06e174	-0.13171941
18	0xbc4d930b	-0.012547265
19	0xbcb7bfc0	-0.0224303
20	0xbe06e9c5	-0.13175113
21	0x3c655b1f	0.013998776
22	0x3d23f2ae	0.04002636
23	0xbd84a6ff	-0.064771645
24	0x3d9e3b0e	0.077261075
25	0xbd8835b6	-0.066508695
26	0xbd04517e	-0.03230428
27	0x3da5cd2e	0.080957755
28	0x3d6735de	0.056447856
29	0x3ab8aae3	0.0014089014
30	0x3acb0a3b	0.001549072
31	0x3d18a4be	0.037266485
32	0xbd9066a6	-0.07050829
33	0xbdc6385e	-0.0967872
34	0xbda5a85c	-0.080887526
35	0x3ce8e9fb	0.028431883
36	0xbdf2a4df	-0.11847853
37	0xbd8863b4	-0.06659642
38	0xbcacf369	-0.02111216
39	0xbd82da2f	-0.063892715
40	0xbcb1241c	-0.021623664
41	0xbdc7d97f	-0.09758281
42	0xbe08ee74	-0.13372213
43	0xbc0e8bc0	-0.008700311
44	0x3c4401de	0.011963336
45	0x3d01dddd	0.031705726
46	0x3d4a8941	0.0494473
47	0xbd6bb80a	-0.05754856
48	0xbba3bee0	-0.0049971193
49	0xbd732e87	-0.059370544
50	0xbaf2e883	-0.0018532429
51	0xbcc4a271	-0.02400324
52	0xbc4d79d0	-0.012541249
53	0xbd061d89	-0.03274301
54	0xbdf3f8b9	-0.119126745
55	0xbdc976e8	-0.09837133
56	0x3c4319b3	0.011907983
57	0x3d65faa5	0.056147236
58	0xbdbd82c7	-0.092534594
59	0x3d711787	0.058860328
60	0x3d9dfbac	0.07714018
61	0x3c52d8ad	0.012869042
62	0x3c92e0a4	0.017929383
63	0x3c4ce1cc	0.012505006
64	0xbddc93fd	-0.10770414
65	0xbd3f5cab	-0.046719234
66	0xbbcf2835	-0.0063219317
67	0x3d858a3a	0.06520505
68	0x3d68ee38	0.056867808
69	0xbd5d9915	-0.05410107
70	0xbd922d54	-0.07137552
71	0xbce9a908	-0.028522983
72	0x3c50a98f	0.012735738
73	0xbca20ddc	-0.019782
74	0xbda307c7	-0.07960468
75	0xbd279852	-0.04091675
76	0xbdb4ab49	-0.088217326
77	0x3d8bd5ef	0.06827914
78	0xbd3f946a	-0.046772398
79	0x3d416cd5	0.04722293
80	0xbd469530	-0.04848212
81	0x3c856668	0.016284183
82	0x3d0c7363	0.03428973
83	0xbd7064a3	-0.058689725
84	0xbc1de108	-0.009636171
85	0xbd5bc19d	-0.05365144
86	0xbd66c1a7	-0.056337025
87	0xbd5b1d67	-0.053494837
88	0x3b20d780	0.002454251
89	0xbd8db248	-0.0691877
90	0xbda02b08	-0.078207076
91	0x3db39686	0.087689444
92	0xbd894d86	-0.067042395
93	0xbd9c5969	-0.07634241
94	0x3d6a8ef6	0.057265244
95	0xbbf2988b	-0.0074034384
96	0xbde5176f	-0.1118611
97	0xbdf4259e	-0.119212374
98	0xbe141605	-0.14461525
99	0x3c9e1c5c	0.019300632
100	0xbd36cfbb	-0.0446317
101	0xbd76dbb0	-0.060268104
102	0xbca684a3	-0.020326918
103	0xbddabdf8	-0.10680765
104	0xbd324740	-0.04352498
105	0x3d02d393	0.031940054
106	0x3d51b45e	0.051197402
107	0xbde0a8e6	-0.10969715
108	0xbd8a82cc	-0.06763229
109	0xbcb007ec	-0.021488152
110	0xbd4db624	-0.05022253
111	0xbca94a06	-0.02066518
112	0xbd440a6f	-0.047861513
113	0xbd00e8ba	-0.031471945
114	0xbdb699f6	-0.089160845
115	0xbdfb4751	-0.12269462
116	0xbc81664d	-0.015795851
117	0xbdcd7c53	-0.100334786
118	0xbd835db1	-0.064143546
119	0xbe1214f5	-0.14265807
120	0xbd733f66	-0.059386633
121	0xbc4eb9a2	-0.0126175005
122	0xbdf39685	-0.11893944
123	0xbca5f206	-0.020257007
124	0xbd9fcc64	-0.07802656
125	0x3bf613e0	0.0075096935
126	0x3ce04713	0.02737764
127	0xbd2201e4	-0.039552584

model.4.weight f4 [128, 128]
0	0x3ca488c1	0.02008474
1	0xbddcfd83	-0.10790541
2	0xbd89662d	-0.067089416
3	0x3d6e1996	0.05812987
4	0xbd79bc5a	-0.06097064
5	0xbdac1443	-0.08402302
6	0xbc98cd2c	-0.018652521
7	0xbdbd1c68	-0.09233934
8	0xbda808a9	-0.08204777
9	0xbd03a343	-0.03213812
10	0x3d889dc1	0.06670714
11	0xbd3f1071	-0.04664654
12	0xbd5173d4	-0.051135853
13	0x3cb2ee00	0.021842003
14	0xbe00b0aa	-0.12567392
15	0x3d6fbd0a	0.05852989
16	0xbd6ceda0	-0.057843804
17	0xbd3098ed	-0.04311459
18	0x3be58150	0.0070039406
19	0x3ceaa9ac	0.028645359
20	0xbc955f89	-0.018234031
21	0xbd04e376	-0.032443486
22	0xbd8e024c	-0.06934032
23	0xbe0e118d	-0.13873883
24	0xbe05e498	-0.13075483
25	0x3babcdd0	0.0052430406
26	0x3cb044c4	0.021517165
27	0xbdd33e3a	-0.10314603
28	0xbde9268c	-0.11384305
29	0xbc560dd0	-0.013064817
30	0xbb60a600	-0.0034278631
31	0x3a440c80	0.0007478669
32	0x3d6672ca	0.056261815
33	0x3cbeb3f8	0.023279175
34	0x3cab5453	0.020914232
35	0x3cddf42e	0.027093973
36	0xbe090d19	-0.13383903
37	0x3c67d9e1	0.0141510675
38	0x3cc71cef	0.024305789
39	0x3db03ba1	0.08605123
40	0x3d6387d2	0.05554945
41	0xbdd131f9	-0.1021461
42	0xbe168981	-0.14700891
43	0x3ce4ee4c	0.02794566
44	0xbdaf5910	-0.08561909
45	0xbdf2c45a	-0.11853857
46	0xbd5870b8	-0.052841872
47	0x3c7769f0	0.015100941
48	0xbc663028	-0.014049567
49	0x3cbb3dea	0.022856671
50	0xbd90b60f	-0.07065975
51	0x3d3b7932	0.045769878
52	0xbc66a2f8	-0.014076941
53	0xbdfeb2c8	-0.124364436
54	0xbd991108	-0.074739516
55	0xbdf21ec5	-0.11822275
56	0x3c2f3d05	0.0106957005
57	0xbc14d577	-0.009084097
58	0x3bbe0978	0.0057994686
59	0xbdc4ff8a	-0.09619053
60	0xbdbeae80	-0.09310627
61	0x3cde6f88	0.027152792
62	0xbd144532	-0.036198802
63	0xbd25ceb2	-0.040480323
64	0xbd0db324	-0.03459467
65	0xbd621f40	-0.055205584
66	0xbb304fd6	-0.0026903055
67	0xbdb5e8ca	-0.088822916
68	0xbdf30c39	-0.11867566
69	0xbdc11373	-0.09427538
70	0x3c1b6780	0.009485126
71	0x3d0c29d2	0.03421957
72	0x3ce334bf	0.027735112
73	0xbe10cdff	-0.14141081
74	0xbccc0e48	-0.024909154
75	0xbddfb112	-0.10922445
76	0xbe0ab3d3	-0.1354516
77	0x3d55fec2	0.05224491
78	0xbc9368a8	-0.01799424
79	0xbda7eafb	-0.08199116
80	0x3c948758	0.018130943
81	0xbd853406	-0.06504063
82	0xbdcaf886	-0.09910683
83	0xbd61aaf8	-0.05509469
84	0x3d9b6331	0.07587279
85	0xbbf0e0f0	-0.0073510334
86	0xbcdc2398	-0.026872441
87	0xbcfb4356	-0.030671757
88	0xbd8e1b7c	-0.06938836
89	0x3c32c52a	0.010911265
90	0xbce9e490	-0.02855137
91	0xbd56f515	-0.052479822
92	0xbb6c09e8	-0.0036016647
93	0x3db1b6c7	0.0867744
94	0xbd47670b	-0.048682254
95	0xbdac6a81	-0.084187515
96	0x3cc6c63c	0.024264447
97	0xbd9dedf8	-0.077114046
98	0x3bfa60c0	0.007640928
99	0xbc8d2dd0	-0.01723376
100	0x3bda52f0	0.006662719
101	0xbda12ddb	-0.07870074
102	0xbda4972b	-0.080366455
103	0xbb958824	-0.0045633484
104	0xbbfa0dbd	-0.0076310323
105	0xbd8a51d2	-0.06753887
106	0x3d38bdf6	0.045103036
107	0xbe150ced	-0.14555712
108	0x3cbed8ef	0.023296801
109	0xbd4a92d3	-0.04945643
110	0xbdcd4e7e	-0.10024737
111	0x3c1d9431	0.009617851
112	0xbd424ef3	-0.047438573
113	0xbd3abdf6	-0.045591317
114	0xbe00ac4f	-0.1256573
115	0xbd634b1d	-0.055491555
116	0x3ce07e95	0.027404109
117	0xbd17a108	-0.037018806
118	0xbdfcfb29	-0.123525925
119	0xbd37558d	-0.044759322
120	0xbd5e62be	-0.054293387
121	0xbd3db7df	-0.04631793
122	0xbd954d36	-0.072901174
123	0x3c9cfe40	0.019164205
124	0xbd942b42	-0.07234813
125	0x3cc60164	0.024170585
126	0xbdb85b19	-0.090017505
127	0x3d6d8ec2	0.057997473
128	0x3d2472d8	0.040148586
129	0x3d97cfe4	0.07412699
130	0xbd9cdc32	-0.076591864
131	0x3d1b30ee	0.03788846
132	0x3cd5a6ec	0.026080571
133	0xbd827240	-0.06369448
134	0x3d2f58de	0.04280936
135	0x3cced761	0.025249185
136	0x3d34fa57	0.044184055
137	0xbde3e2b5	-0.11127225
138	0xbdb08baf	-0.086203925
139	0x3cc3bf1f	0.023894845
140	0x3db1a9d3	0.086749695
141	0x3c85103f	0.016243098
142	0x3d01e8c4	0.031716123
143	0x3c27b1e8	0.010235287
144	0xbcc4c8e5	-0.024021575
145	0x3b5c7c40	0.0033643395
146	0x3d615a46	0.055017732
147	0xbc4fad10	-0.012675539
148	0x3d46bdea	0.04852096
149	0x3d9d9e17	0.07696169
150	0xbd1e6e95	-0.038679678
151	0x3d462793	0.048377585
152	0xbcd4a6f8	-0.025958523
153	0x3d93bed5	0.07214133
154	0x3d3bd432	0.045856662
155	0xbd03731d	-0.032092202
156	0xbd84846c	-0.0647057
157	0x3b89ad59	0.004201573
158	0x3da3d57f	0.079997055
159	0xbd0b55a6	-0.034017228
160	0xbd99fac7	-0.07518535
161	0x3db7f709	0.08982665
162	0xbcde3080	-0.027122736
163	0xbdb71a6b	-0.08940586
164	0xbcaaee93	-0.020865714
165	0x3d527045	0.0513766
166	0xbdabeac3	-0.083943866
167	0xbd154a45	-0.036447782
168	0x3d8ba829	0.068191834
169	0x3d2f30db	0.0427712
170	0x3dc2b839	0.09507794
171	0xbd8c8cd2	-0.06862797
172	0xbcaeca14	-0.021336593
173	0xbda256ee	-0.07926737
174	0xbd219397	-0.039447393
175	0x3d523d64	0.051328078
176	0x3d35792a	0.044305004
177	0xbce3b183	-0.027794605
178	0x3c952a6c	0.018208705
179	0xbd9c8a36	-0.07643549
180	0x3d71217a	0.058869816
181	0xbd0c2dd3	-0.03422339
182	0x3e01bc4b	0.12669484
183	0x3d73ac05	0.059490222
184	0xbd62ad42	-0.055341013
185	0x3cdfe613	0.027331388
186	0xbc64a389	-0.013955005
187	0xbd3425ab	-0.043981235
188	0xbd94e625	-0.07270459
189	0xbc2a3218	-0.01038792
190	0xbddd6643	-0.108105205
191	0x3d3c39c9	0.045953546
192	0x3d8a210f	0.06744587
193	0xbd0c76ad	-0.034292866
194	0x3e0baee3	0.13640933
195	0x3c3ff749	0.011716672
196	0x3d7514f6	0.059834443
197	0x3d748f25	0.059706826
198	0xbcf93ba2	-0.030423943
199	0xbd587ce8	-0.052853495
200	0x3ce929c6	0.028462302
201	0x3d046ec1	0.032332186
202	0x3d8464cd	0.06464539
203	0x3dcd255a	0.1001689
204	0xbd49d3a0	-0.049274087
205	0xbd3120f8	-0.043244332
206	0x3d354a7a	0.04426048
207	0xbcfa0626	-0.03052051
208	0x3d8e5211	0.06949247
209	0x3d869973	0.06572237
210	0x3e0428ad	0.12906142
211	0xbc43490b	-0.01191927
212	0x3cd84fb8	0.0264052
213	0x3d641012	0.05567939
214	0xbd782873	-0.06058545
215	0x3c48c4ad	0.012253922
216	0x3c94b690	0.018153459
217	0x3d7d1948	0.06179169
218	0xbd89afe8	-0.067230046
219	0xbda5bf0b	-0.08093079
220	0xbc84119e	-0.016121682
221	0xbd08f920	-0.03344071
222	0xbdb421c9	-0.087955065
223	0x3cb0a32a	0.021562178
224	0xbc844578	-0.016146407
225	0x3c3b5c9a	0.011435652
226	0x3cc455fd	0.023966784
227	0xbcb2a8f4	-0.021809079
228	0xbd803d76	-0.06261723
229	0x3c3661c8	0.011131711
230	0x3d210128	0.039307743
231	0xbcb8f828	-0.022579268
232	0x3e04db3a	0.12974253
233	0xbc87e898	-0.016590402
234	0xbd4b0ecd	-0.049574662
235	0x3d82d75e	0.06388734
236	0xbdd110d5	-0.102082886
237	0xbc5d5250	-0.013508394
238	0x3c373243	0.011181417
239	0x3d261dfb	0.040555935
240	0xbdb4529a	-0.088048175
241	0x3e06a2e4	0.13148075
242	0x3e10cb1b	0.14139979
243	0xbd9f42c5	-0.07776407
244	0x3de42edb	0.111417495
245	0x3de6b949	0.11265809
246	0xbca16b3d	-0.019704456
247	0x3a1ae600	0.00059089065
248	0x3c989555	0.018625895
249	0x3628dd3c	2.5162726e-06
250	0xbc9b4245	-0.018952498
251	0xbcc618ac	-0.024181686
252	0xbd4613d4	-0.048358753
253	0x3d6aa9ce	0.057290845
254	0x3d9bcd5a	0.07607527
255	0xbd9e4e98	-0.07729834

model.4.bias f4 [128]
0	0xbcd1717a	-0.025566805
1	0x3d46c196	0.04852446
2	0xbc7c9164	-0.015415523
3	0xbd9c5c5d	-0.076348044
4	0xbd8f8ac0	-0.07008886
5	0xbd0059a8	-0.031335503
6	0x3df3e5aa	0.11909039
7	0xbdd391aa	-0.103305176
8	0x3c849ca7	0.016187979
9	0x3c235f09	0.009971389
10	0xbcc339c0	-0.023831248
11	0xbd06d039	-0.03291342
12	0xbcb8b2d1	-0.022546204
13	0x3cca6062	0.024704162
14	0x3cb2aff2	0.021812413
15	0xbcae7245	-0.021294722
16	0x3e15bffb	0.14624016
17	0x3d5fc136	0.05462762
18	0xbcd89c54	-0.02644173
19	0x3bc47965	0.0059959167
20	0x3c4664e0	0.012109011
21	0x3d2b2856	0.041786514
22	0x3dbd17cf	0.09233057
23	0xbd13459f	-0.035955068
24	0x3ce6cd3d	0.028174037
25	0x3d0c1422	0.034198888
26	0xbd8c9594	-0.06864467
27	0xbd670754	-0.056403473
28	0x3d168852	0.0367511
29	0xbe3355de	-0.17513224
30	0xbdfea70c	-0.124342054
31	0x3d5cf49e	0.053944223
32	0xbe199bfb	-0.15000908
33	0xbc5a9e22	-0.013343366
34	0x3c0c1b8c	0.00855149
35	0x3c6cf361	0.014462323
36	0x3c8e14c9	0.017343896
37	0x3caf4b34	0.021398164
38	0xbd8dca2a	-0.06923325
39	0xbdb44385	-0.08801941
40	0xbc22610a	-0.009910831
41	0x3df26e42	0.11837436
42	0xbd5d3ce1	-0.054013137
43	0x3cbee1e1	0.023301067
44	0x3b3599ad	0.0027710006
45	0xbd1586bf	-0.036505457
46	0x3db36f79	0.08761496
47	0x3d4945a2	0.049138673
48	0xbdf8b8b0	-0.12144601
49	0xbd7843a2	-0.060611375
50	0xbbbcaa6c	-0.0057576206
51	0xbd724216	-0.059145056
52	0xbdd95d20	-0.10613465
53	0xbb049e07	-0.0020235793
54	0xbd14a730	-0.036292255
55	0x3cfbbbd4	0.030729212
56	0xbc8100c6	-0.01574744
57	0xbc5dee24	-0.013545547
58	0x3d17775a	0.036979057
59	0xbc9c0b9b	-0.019048503
60	0x3a8831c0	0.0010390803
61	0x3d4ec5de	0.05048167
62	0xbddba7c6	-0.107253596
63	0x3cdcec19	0.026968049
64	0x3cb3fdbc	0.021971576
65	0x3c268a4f	0.010164811
66	0xbd43f7e6	-0.047843836
67	0xbd80858e	-0.062754735
68	0xbc68c43c	-0.014206942
69	0x3cee7e28	0.02911289
70	0x3ce7aa0c	0.028279327
71	0xbe052e26	-0.13005885
72	0x3d0b9f3c	0.034087405
73	0x3d30381c	0.04302226
74	0xbd0f23c2	-0.03494621
75	0xbd223590	-0.039601862
76	0xbe116598	-0.14198911
77	0x3c1b1c40	0.009467185
78	0x3e09dd41	0.13463308
79	0xbdb873ed	-0.09006486
80	0xbdbc9a57	-0.092091255
81	0xbdbad393	-0.09122386
82	0xbaae5f57	-0.001330356
83	0x3e01109e	0.12603995
84	0x3dd8600c	0.105651945
85	0xbdd61262	-0.10452725
86	0xbc4733b0	-0.012158319
87	0x3b8aa7f8	0.004231449
88	0xbd2b7bc8	-0.041866094
89	0xbe08cb6d	-0.13358851
90	0xbdad865f	-0.08472895
91	0xbe118639	-0.14211358
92	0x3e05834f	0.13038372
93	0x3deba0d2	0.115052834
94	0x3d302a4b	0.043009084
95	0x3d3303ba	0.043704726
96	0x3d437524	0.047719136
97	0x3d154c2f	0.036449607
98	0xbd510840	-0.05103326
99	0xbd966121	-0.073427446
100	0x3cab7cff	0.020933626
101	0xbdd798a1	-0.105271585
102	0xbd8d7895	-0.06907765
103	0x3c1140d3	0.008865553
104	0xbc317357	-0.010830722
105	0x3d666493	0.05624826
106	0xbd89dd20	-0.06731629
107	0x3d84b993	0.06480708
108	0xbdaa09e8	-0.08302671
109	0x3d0e9fb6	0.03482028
110	0xbdc86f74	-0.09786883
111	0x3e0c6a76	0.13712487
112	0xbe12da67	-0.14341126
113	0xbc92aaae	-0.017903652
114	0x3d8ddf0b	0.06927308
115	0xbddc88dd	-0.10768292
116	0xbc798fba	-0.015232021
117	0x3d8c2ab7	0.06844085
118	0xbcab0174	-0.020874716
119	0xbcdaefd2	-0.026725683
120	0xbca3b784	-0.019984968
121	0x3d9b0a6f	0.075703494
122	0xbdfa9b1f	-0.12236618
123	0xbde8950f	-0.11356556
124	0xbd596d23	-0.053082597
125	0xbdd20da8	-0.10256511
126	0x3cc25ce8	0.023725942
127	0x3d163f6d	0.03668158

model.6.weight f4 [1, 128]
0	0xbafebe8f	-0.0019435453
1	0xbc90b7cd	-0.017665768
2	0x3d3d0bab	0.046153706
3	0xbd018bea	-0.031627573
4	0xbcae5c92	-0.021284375
5	0xbcf82d6c	-0.030295096
6	0x3d95e45a	0.07318945
7	0x3c9ab90e	0.01888707
8	0x3d0172df	0.03160369
9	0xbc4bd1b8	-0.012440138
10	0x3d08ad6a	0.033368506
11	0x3be4a761	0.006977961
12	0xbd5c9a48	-0.05385807
13	0xbc996ecd	-0.018729592
14	0xbcd949ec	-0.026524507
15	0x3d13fed1	0.036131684
16	0x3da56009	0.08074958
17	0x3d72f282	0.059313305
18	0x3d65b6f8	0.056082696
19	0xbcdc82ce	-0.026917841
20	0xbc24e4c8	-0.010064311
21	0x3da76cc1	0.0817504
22	0xbb9e501e	-0.004831328
23	0x3d43e25b	0.04782329
24	0xbbde8056	-0.006790201
25	0x3cc28b45	0.02374805
26	0x3cf49f59	0.02986114
27	0xbbba862e	-0.005692265
28	0xbd5d1298	-0.05397281
29	0xbdafc3ca	-0.08582266
30	0x3d464fb0	0.04841584
31	0xbbd12030	-0.006382011
32	0xbd7d0ccc	-0.061779782
33	0x3d65de30	0.056120098
34	0x3dcea2de	0.10089658
35	0xbc9977bd	-0.018733853
36	0x3d1aad74	0.037763074
37	0x3c5b3ff8	0.013381951
38	0x3d5a3eff	0.053282734
39	0x3d51d4f7	0.05122849
40	0x3c58fcfb	0.013243909
41	0x3d389650	0.045065224
42	0x3d8dc6f0	0.0692271
43	0xbc062cd2	-0.008189397
44	0x3d8aa816	0.06770341
45	0xbba757fb	-0.0051069236
46	0x3d794116	0.060853086
47	0x3d6eee82	0.058332928
48	0xbae491db	-0.0017438488
49	0x3d022f3c	0.031783327
50	0x3dda92b8	0.10672516
51	0x3cda149b	0.026621154
52	0xbd5b137c	-0.05348538
53	0x3ca6f03a	0.02037822
54	0x3d1b04ba	0.037846304
55	0x3d8f2133	0.06988754
56	0x3df8f991	0.12156976
57	0x3d9f2634	0.077709585
58	0x3dc90f0e	0.098173246
59	0xbc45892d	-0.012056631
60	0xbd4a99c9	-0.049463067
61	0xbd3e3ffa	-0.04644773
62	0x3c9bc1ce	0.019013312
63	0x3dad176a	0.084517315
64	0xbd3ced5a	-0.046124794
65	0xbcda1146	-0.026619565
66	0xbcac291d	-0.021015698
67	0xbcd03036	-0.025413614
68	0x3cd4798d	0.025936866
69	0xbdaa1c56	-0.08306186
70	0xbda4dce2	-0.080499426
71	0xbc1d0ac6	-0.009585088
72	0xbd3054fd	-0.0430498
73	0x3dae8510	0.085214734
74	0xbc0480f1	-0.008087383
75	0x3d85d9f6	0.065357134
76	0x3d3ab8f2	0.045586534
77	0x3d07c988	0.03315118
78	0x3d743e04	0.059629455
79	0xbbdfb27b	-0.0068266965
80	0x3d3c608c	0.04599051
81	0xbd027900	-0.031853676
82	0x3ccb7a5c	0.024838619
83	0x3bd4b5e6	0.0064914105
84	0x3db11560	0.08646655
85	0x3d0279bd	0.03185438
86	0xbd3e2a36	-0.046426974
87	0xbccdbe5d	-0.025115186
88	0x3d031919	0.032006357
89	0x3d1ee729	0.03879467
90	0xbb1feb8f	-0.0024401878
91	0x3b69bc92	0.0035665375
92	0x3d6181f5	0.055055577
93	0x3d17fc18	0.03710565
94	0x3d960978	0.07326025
95	0xbd8e884a	-0.06959589
96	0xbb5b4717	-0.003345912
97	0xbd3920fd	-0.045197476
98	0x3d72be5a	0.059263565
99	0x3d2758ec	0.040856287
100	0xbcde4ffa	-0.027137745
101	0x3cd091f4	0.02546022
102	0x3d441d74	0.04787965
103	0x3dad4c57	0.08461826
104	0xbc87e9b6	-0.016590934
105	0x3cc4e1d1	0.024033459
106	0x3d55c2fb	0.0521879
107	0xbd965056	-0.073395416
108	0x3ca16ac1	0.019704225
109	0x3d0597eb	0.032615583
110	0xbca58bc3	-0.020208245
111	0x3d2fe413	0.042942118
112	0xb9f1b35e	-0.0004610074
113	0x3cf7013e	0.03015196
114	0x3d628b22	0.05530847
115	0x3ce383c7	0.027772797
116	0x3bb3b9fc	0.0054848175
117	0x3d7fbc1b	0.06243525
118	0x3cf8b287	0.030358566
119	0xbd27529e	-0.040850274
120	0x3ca72c82	0.020406965
121	0x3dab3a4f	0.08360731
122	0xbcaa3a1f	-0.020779667
123	0xbc9e0ab6	-0.019292217
124	0x3d97f663	0.074200414
125	0x3c5fd1be	0.013660846
126	0x3dcbb026	0.09945707
127	0x3cbf4bde	0.023351606
