week2/model_pytorch_covert.pth (torch, 167196 bytes, 8 tensors)

layer1.weight f4 [128, 54]
0	0x3e5c042c	0.21485966
1	0x3db80e4a	0.089871004
2	0x3db6fe94	0.08935276
3	0x3ac0ef2a	0.0014719714
4	0xbe12c55b	-0.14333098
5	0xbd63d015	-0.055618364
6	0xbda33626	-0.07969312
7	0xbcd9de2a	-0.026595194
8	0x3cbc133f	0.022958396
9	0xbe638f2c	-0.22222584
10	0x3e06654a	0.13124576
11	0xbcc2c406	-0.023775112
12	0xbd33f6b0	-0.04393643
13	0xbd91bc0e	-0.07115947
14	0xbc8a4bf1	-0.016881915
15	0x3bbcf869	0.0057669175
16	0x39368c5e	0.00017409163
17	0xbcd629c8	-0.02614297
18	0xbd952fe3	-0.07284524
19	0x3da0a35b	0.078436576
20	0x3d316dba	0.043317534
21	0x3caaa344	0.020829804
22	0xbce7675c	-0.028247528
23	0x3de9bcf4	0.11412993
24	0x3e6873ad	0.22700377
25	0x3e4a90fb	0.19781868
26	0xbd202fdd	-0.039108146
27	0x3dff9ccf	0.12481081
28	0x3de020cd	0.10943756
29	0x3c64dac3	0.0139681725
30	0x3c5012a6	0.012699759
31	0x3dbc625d	0.09198449
32	0x3bc85add	0.0061143474
33	0xbcf339cb	-0.029690644
34	0x3c5961fb	0.013267989
35	0xbd83ec10	-0.0644151
36	0xbdb67c05	-0.089103736
37	0x3db3956b	0.087687336
38	0xbd458c5c	-0.04822956
39	0x3d8aaa8d	0.06770811
40	0x3e1cb0a5	0.1530176
41	0x3cd73b3c	0.026273362
42	0xbd9ed3bc	-0.07755229
43	0xbc983f7e	-0.018584963
44	0x3d05dfe3	0.03268422
45	0xbdaedff9	-0.08538813
46	0xbd52bc65	-0.0514492
47	0x3e6eff1f	0.23339508
48	0x3e091ca3	0.1338983
49	0xbd69574c	-0.05696802
50	0xbd8dfa86	-0.06932549
51	0xbd3c5e75	-0.04598852
52	0xbd508fc2	-0.050918348
53	0xbdbb8a9f	-0.09157299
54	0xbdc74771	-0.09730423
55	0xbde7fd93	-0.11327662
56	0x3b660c80	0.0035102665
57	0x3e86e3f2	0.26345783
58	0xbcd2e2b9	-0.025742875
59	0x3e1979ea	0.14987913
60	0x3e0bc3b1	0.13648869
61	0x3e0d263b	0.13784115
62	0x3ddb7780	0.10716152
63	0xbd70d216	-0.058794104
64	0x3e5c46dc	0.21511406
65	0xbdb5150c	-0.08841905
66	0xbdf9b7a6	-0.12193231
67	0x3d804e86	0.06264977
68	0x3d097b96	0.033565126
69	0xbe429ff6	-0.19006333
70	0xbdb3de87	-0.08782678
71	0x3d8b4567	0.06800347
72	0xbda510a9	-0.08059818
73	0x3cfa5b5f	0.030561147
74	0xbe2d63af	-0.16932558
75	0xbe3371b8	-0.17523849
76	0x3d8979f6	0.06712715
77	0x3d31fa96	0.043451868
78	0xbdf6b175	-0.12045566
79	0xbe3ebcd7	-0.18626724
80	0xbdef981e	-0.11698936
81	0xbdcfe135	-0.10150377
82	0xbdda2f87	-0.10653596
83	0x3d88e01f	0.06683373
84	0xbd5139d6	-0.051080547
85	0x3d87dd43	0.06633999
86	0xbd296e48	-0.041364938
87	0xbe04985e	-0.12948748
88	0xbd9c90f0	-0.07644832
89	0x3d648a43	0.05579592
90	0xbe1cc455	-0.1530927
91	0x3d21539f	0.039386388
92	0xbd3c8437	-0.046024527
93	0x3d94b3eb	0.07260879
94	0x3d5f48e4	0.054512873
95	0x3e0d0663	0.13771968
96	0xbe634759	-0.22195186
97	0x3ca02570	0.019549102
98	0xbb9536b2	-0.0045536393
99	0x3d10e464	0.03537406
100	0xbd82fd59	-0.063959785
101	0xbd1f3a48	-0.03887394
102	0xbe5f7566	-0.21822128
103	0xbe51714b	-0.20453374
104	0x3c99bea8	0.01876767
105	0xbe1b2761	-0.1515174
106	0x3d2b098a	0.041757144
107	0xbd435432	-0.047687717
108	0x3dbd2be8	0.0923689
109	0xbdeca853	-0.11555543
110	0xbc97ec4e	-0.018545296
111	0x3dc75fad	0.097350456
112	0xbe471c03	-0.1944428
113	0x3e21767d	0.15767856
114	0xbd356bda	-0.04429231
115	0x3e3392d6	0.17536482
116	0x3da6173d	0.08109901
117	0xbd8f099e	-0.06984256
118	0x3e53738b	0.20649545
119	0xbd6a27c4	-0.05716683
120	0xbdd19bfb	-0.10234829
121	0xbdea257a	-0.11432929
122	0xbd8534dc	-0.06504223
123	0xbd41ea39	-0.047342513
124	0xbe2c0d8f	-0.16802047
125	0xbd9bff69	-0.07617075
126	0xbe3dfeee	-0.18554279
127	0x3dc3b095	0.09555165
128	0xbd8c1b5d	-0.06841157
129	0x3d0ebe6b	0.034849565
130	0xbe540b40	-0.20707417
131	0x3dd29d33	0.102838896
132	0xbdaa7f3e	-0.08325051
133	0xbd4db473	-0.050220918
134	0x3cb12cc4	0.021627791
135	0xbd7ffbdb	-0.062496047
136	0xbd8884a3	-0.066659234
137	0xbe1e91da	-0.15485325
138	0xbbf25ab7	-0.007396068
139	0x3dd7ab18	0.105306804
140	0xbdf3dac5	-0.11906961
141	0xbdc7c53d	-0.09754417
142	0xbda41c7c	-0.080132455
143	0xbd034eb8	-0.032057494
144	0x3dab4b43	0.083639644
145	0x3d2270e3	0.03965844
146	0x3e1d4b57	0.15360771
147	0x3c9b45cf	0.018954186
148	0x3d1927c3	0.037391435
149	0x3de0493f	0.109514706
150	0x3e061d36	0.1309708
151	0x3d757e0c	0.05993466
152	0xbda9b298	-0.08286017
153	0xbd126db3	-0.03574915
154	0xbddee767	-0.1088398
155	0x3b240fe3	0.0025033883
156	0xbe35c4fb	-0.17750923
157	0x3d922839	0.07136578
158	0x3d8ce83d	0.068802334
159	0x3d943276	0.07236187
160	0xbe61680f	-0.22012351
161	0xbd54267d	-0.051794518
162	0x3e8e8111	0.27832845
163	0xbd64b17c	-0.055833325
164	0x3ce21f7d	0.027602905
165	0x3e4dfa3c	0.20114988
166	0x3e0c96ab	0.1372935
167	0x3db875ac	0.09006819
168	0xbdee8beb	-0.11647781
169	0xbccd7e9f	-0.025084792
170	0xbc2d1e81	-0.010566355
171	0x3c35faf8	0.011107199
172	0xbd394d39	-0.04523966
173	0xbd958293	-0.07300296
174	0xbc6fdfb4	-0.014640737
175	0x3d0af043	0.033920538
176	0x3c065322	0.008198531
177	0x3c537196	0.012905499
178	0x3ca8f286	0.020623457
179	0x3d3bb1fc	0.045824036
180	0x3d0bb06b	0.034103792
181	0xbd7a9417	-0.061176386
182	0x3e2a10c5	0.1660796
183	0x3d3881ea	0.04504577
184	0x3d4c61c8	0.04989794
185	0xbbd6420e	-0.006538636
186	0xbd4b2d33	-0.049603652
187	0xbd1cfd0a	-0.038327254
188	0x3d835cb1	0.06414164
189	0xbd9c2255	-0.07623736
190	0xbc123e91	-0.00892605
191	0x3d0b3f27	0.033995774
192	0x3de33e2a	0.11095841
193	0xbd577307	-0.052599933
194	0xbce77a4f	-0.028256563
195	0xbd72400a	-0.059143104
196	0x3d16f38f	0.03685337
197	0x3d5f95e5	0.05458631
198	0xbd9e2c6f	-0.07723319
199	0x3e21f949	0.15817751
200	0xbcca3ef9	-0.02468823
201	0x3dcdd7f1	0.10050953
202	0xbd38222a	-0.044954456
203	0x3b9c6c10	0.0047736242
204	0x3d126230	0.03573817
205	0x3d5d837b	0.054080468
206	0x3dd2c3a2	0.1029122
207	0x3d6c989b	0.057762723
208	0xbd6dddc4	-0.05807282
209	0xbd418c19	-0.04725275
210	0x3daf1188	0.08548266
211	0xbdabeb7a	-0.08394523
212	0x3e592e6e	0.21209118
213	0xbdfb4d44	-0.122705966
214	0x3d5cca48	0.053903848
215	0xbdd2501e	-0.102691874
216	0xbe8ad341	-0.271143
217	0x3e2f1bdf	0.17100476
218	0x3d03eeb9	0.032210086
219	0x3cd08134	0.025452234
220	0x3c533f17	0.01289346
221	0x3cfb2d79	0.030661331
222	0xbdce734a	-0.100805834
223	0x3de17797	0.11009138
224	0xbcd0b350	-0.025476128
225	0x3c831ab0	0.016003937
226	0x3d920e5f	0.07131647
227	0xbc80c951	-0.015720995
228	0x3e5df2bb	0.21674626
229	0x3dd2f17e	0.10299967
230	0xbca5f388	-0.020257726
231	0xbc791ac1	-0.015204133
232	0x3cffc085	0.03121973
233	0xbddc7c1f	-0.10765862
234	0x3c1b52a3	0.009480151
235	0xbc154707	-0.0091111725
236	0x3d8093dc	0.06278202
237	0xbdc70656	-0.09718005
238	0xbc9a3e87	-0.018828643
239	0xbcb7476a	-0.02237292
240	0xbb820b0b	-0.0039686016
241	0xbd179910	-0.037011206
242	0xbd5ef3fd	-0.054431904
243	0xbc88e0cd	-0.016708756
244	0x3d28f998	0.041253656
245	0xbd936e73	-0.07198801
246	0x3d813451	0.06308807
247	0x3c11b7ee	0.00889395
248	0xbde1e720	-0.11030412
249	0x3cbd4e92	0.023108754
250	0x3cc391aa	0.023873169
251	0xbbbe18de	-0.0058013042
252	0x3d5ad1d3	0.05342276
253	0x3dcd076b	0.100111805
254	0x3e14ec20	0.145432
255	0x3e1555db	0.14583533

layer1.bias f4 [128]
0	0xbc505f87	-0.012718088
1	0x3e46a8f5	0.1940039
2	0x3de9f6d7	0.11424034
3	0x3d8c1008	0.06838995
4	0x3d1854f4	0.037190393
5	0x3db9be47	0.09069496
6	0x3db21537	0.08695453
7	0x3dc4261a	0.0957758
8	0x3dd11b98	0.10210341
9	0x3d883a15	0.06651703
10	0x3bd5885a	0.0065164985
11	0x3e1f6382	0.15565303
12	0xbbeecc18	-0.0072875135
13	0xbd9fe1c7	-0.078067355
14	0x3dc6a15f	0.09698748
15	0xbdc17290	-0.09445679
16	0x3de1acdf	0.11019301
17	0x3e0a152c	0.13484639
18	0x3e0b0004	0.13574225
19	0xbd1ecf74	-0.03877206
20	0xbdae2b3a	-0.085043386
21	0x3de891c5	0.11355928
22	0x3d706fe8	0.058700472
23	0x3df2e4a4	0.11860016
24	0xbd0e8e39	-0.034803603
25	0xbbf14024	-0.0073623825
26	0x3d226c59	0.03965411
27	0xbe0b24af	-0.13588212
28	0x3da1c817	0.07899492
29	0xbc8e95fb	-0.0174055
30	0x3d8165a6	0.06318216
31	0xbd33ae81	-0.04386759
32	0xbd8fa41b	-0.070137225
33	0xbc39d6da	-0.0113427285
34	0x3ddbfabc	0.10741183
35	0x3c1be5eb	0.009515266
36	0xbcb37571	-0.021906586
37	0x3c79a063	0.015235993
38	0xbd6b2304	-0.05740644
39	0x3da7f907	0.08201795
40	0x3dcfc1d3	0.10144391
41	0x3d865fe4	0.065612584
42	0xbe1fb2a2	-0.15595487
43	0x3de1d6cf	0.110272996
44	0x3da0b5a4	0.07847145
45	0x3d0632a6	0.032763146
46	0x3d359b27	0.044337418
47	0x3e2102ae	0.15723678
48	0x3dd5a50d	0.104318716
49	0x3b33f830	0.0027461164
50	0x3e0d5892	0.13803318
51	0xbc189e86	-0.009315139
52	0x3b990722	0.0046700398
53	0xbd7a046b	-0.06103937
54	0xbcbe0cfe	-0.023199555
55	0x3e45035e	0.19239566
56	0x3ceb4be7	0.028722716
57	0x3e2d325d	0.16913743
58	0x3e4831b8	0.19550216
59	0x3daa81aa	0.08325513
60	0x3de335b5	0.11094228
61	0x3c22a338	0.00992661
62	0xbca0fbf2	-0.019651387
63	0x3c8422b0	0.016129822
64	0xbc17b973	-0.009260523
65	0xbd20ffae	-0.039306335
66	0x3e3db3e6	0.18525657
67	0x3d4c929d	0.04994451
68	0x3dbebf99	0.09313888
69	0x3ceac882	0.028660063
70	0x3e592331	0.2120483
71	0x3d7c6545	0.061620016
72	0x3d527707	0.051383045
73	0x3da46d8c	0.08028707
74	0x3e4ff1d2	0.20307091
75	0xbcafae83	-0.021445518
76	0x3e2b1cfe	0.16710278
77	0x3e0a33ab	0.13496272
78	0xbd3e1017	-0.046402063
79	0xbcc81951	-0.024426134
80	0xbc582b33	-0.013193893
81	0x3ba9d6f4	0.005183095
82	0x3d1a99fd	0.03774451
83	0x3e01f4f6	0.12691101
84	0x3ce1b956	0.027554195
85	0x3e2fb826	0.17160091
86	0x3e0df448	0.13862717
87	0x3c8ec02c	0.017425619
88	0x3da1f130	0.07907331
89	0xbd811ecf	-0.063047044
90	0xbd2bf3e8	-0.041980654
91	0xbcef93f6	-0.029245358
92	0x3d13e83b	0.036110144
93	0x3e18842b	0.14894168
94	0xbbd460b8	-0.0064812563
95	0xbd8ce32b	-0.06879266
96	0x3d0d3f33	0.0344841
97	0x3d95365d	0.072857596
98	0x3da5dde9	0.08098967
99	0x3e119297	0.14216076
100	0x3e2def09	0.16985716
101	0xbd8d90d6	-0.06912391
102	0xbdc88ab3	-0.0979208
103	0x3e0f203e	0.13977143
104	0x3e1876f6	0.1488913
105	0xbd89b7e1	-0.06724525
106	0x3e539abe	0.20664498
107	0xbdd08e81	-0.101834305
108	0x3d5cc127	0.053895142
109	0xbe00d973	-0.1258295
110	0xbd85bc1c	-0.0653002
111	0x3de79984	0.11308578
112	0xbdfa8c82	-0.12233831
113	0xba556c7a	-0.00081414694
114	0xbdce4697	-0.10072058
115	0x3ddbdd78	0.10735601
116	0x3e41bf4d	0.18920632
117	0x3d5fd82b	0.054649513
118	0x3d397984	0.045281902
119	0xbbb4632d	-0.0055049867
120	0x3e2513d5	0.16120847
121	0xbe401cbc	-0.18760961
122	0xbd6d3505	-0.05791189
123	0x3d9c83a7	0.07642298
124	0x3d500ce6	0.05079355
125	0xbc238a9e	-0.009981779
126	0xbc9cba0b	-0.019131681
127	0x3d726113	0.05917461

layer2.weight f4 [128, 128]
0	0xbc9c3036	-0.019065958
1	0xbd01a6e1	-0.03165329
2	0xbd6e4a8c	-0.058176562
3	0xbba0f056	-0.004911463
4	0x3cf50cc8	0.029913321
5	0xbaa59b02	-0.0012634697
6	0xbce4ade4	-0.027914949
7	0x3e32dc6a	0.17466894
8	0xbd74ba33	-0.059747886
9	0x3de0f521	0.10984255
10	0x3db55be6	0.08855419
11	0xbce62d1d	-0.028097684
12	0x3d56da96	0.052454554
13	0x3ce13ca3	0.027494734
14	0x3ca5507f	0.020179985
15	0x3dc6b388	0.097022116
16	0xbd59470c	-0.05304627
17	0xbd8a8562	-0.06763722
18	0x3e00a5d8	0.12563264
19	0x3dd14f92	0.10220255
20	0xbd95cc02	-0.07314302
21	0xbc1e8c62	-0.009677025
22	0x3da19948	0.07890564
23	0xbb558a27	-0.0032583566
24	0xbd91e680	-0.071240425
25	0x3d358173	0.044312906
26	0x3d9556bc	0.07291934
27	0x3e104c20	0.1409154
28	0xbdb510d2	-0.08841099
29	0x3d1938e3	0.037407767
30	0x3e3ab2be	0.18232247
31	0x3d8a2350	0.067450166
32	0x3e1513c2	0.14558318
33	0x3c88f764	0.016719528
34	0xbe01e79e	-0.12686011
35	0xbd5019a5	-0.050805707
36	0x3d04404b	0.032287877
37	0x3da9be37	0.08288234
38	0x3e2a406a	0.16626135
39	0xbd6f5670	-0.058432043
40	0x3c9e6c1b	0.019338658
41	0x3e4d201b	0.20031779
42	0xbd996d18	-0.07491511
43	0x3e7bcb0c	0.24589175
44	0xbd246328	-0.040133625
45	0x3d8ecd44	0.06972745
46	0xbc05945f	-0.00815305
47	0x3d06ba90	0.032892764
48	0x3dab8270	0.08374488
49	0xbd1a0511	-0.037602488
50	0xbd0051d7	-0.03132805
51	0xbd21d1a9	-0.039506588
52	0xbcbb1258	-0.022835895
53	0xbc63508e	-0.013874186
54	0x3e51356a	0.20430532
55	0x3e6b9a4b	0.23008077
56	0x3ccdbad3	0.025113499
57	0xbe1b0639	-0.15139093
58	0x3e33a1c6	0.1754218
59	0x3d901d2e	0.070368156
60	0xbe092894	-0.13394386
61	0x3d72ebca	0.059306897
62	0xbdd9cb93	-0.10634532
63	0x3e0aaf29	0.13543381
64	0xbcd84962	-0.02640218
65	0xbde33473	-0.11093988
66	0x3e0889b2	0.13333777
67	0x3d96db54	0.07366052
68	0xbd44af18	-0.048018545
69	0xbd1c269b	-0.038122755
70	0x3e4246f6	0.18972382
71	0x3d6f99f9	0.05849645
72	0x3c9b145c	0.018930607
73	0x3d6dd650	0.058065712
74	0x3e21de60	0.15807486
75	0xbd3e043f	-0.04639077
76	0x3d7269c4	0.059182897
77	0x3d5c97bb	0.05385564
78	0xbd8cc3a8	-0.06873256
79	0xbdd673ec	-0.10471329
80	0x3e4841ba	0.19556323
81	0xbc0c332b	-0.008557121
82	0xbc59636d	-0.013268334
83	0xbe18e707	-0.1493188
84	0xbda5aaad	-0.080891944
85	0x3d7ac53e	0.06122326
86	0x3c3f4790	0.011674777
87	0x3dceeee0	0.101041555
88	0x3dcba544	0.09943631
89	0x3cb72340	0.022355676
90	0x3d8e0884	0.06935218
91	0xbd70bf84	-0.058776394
92	0xbcc2d778	-0.023784384
93	0xbbaba1a9	-0.0052377773
94	0xbdc62063	-0.09674146
95	0x3e1cf89d	0.15329213
96	0x3dd06848	0.1017614
97	0xbd802cd1	-0.06258548
98	0xbd3bfa58	-0.045893043
99	0xbd028df2	-0.03187365
100	0x3d31087d	0.043220986
101	0x3e59ab54	0.21256763
102	0xbdfe4aa7	-0.124165826
103	0x3e40be0d	0.18822499
104	0xbc1bbb0e	-0.0095050465
105	0xbde72aa3	-0.11287429
106	0x3d3dae24	0.04630865
107	0x3e597cb2	0.21238974
108	0xbce20cab	-0.027593931
109	0xbc739c7f	-0.014868855
110	0xbdd09f66	-0.10186653
111	0xbe267d5d	-0.1625876
112	0xbe103f34	-0.1408661
113	0xbd9f0cb2	-0.07766093
114	0x3dbc8e42	0.09206821
115	0x3ddcee9b	0.10787698
116	0x3d9cccbe	0.07656239
117	0x3cf5dadc	0.030011587
118	0x3ded9d15	0.11602227
119	0xbc67c1df	-0.014145344
120	0x3dc53419	0.096290775
121	0x3d218310	0.03943163
122	0x3e5c18fa	0.21493903
123	0xbddcf01f	-0.10787987
124	0xbc80c575	-0.015719155
125	0x3c56110d	0.013065589
126	0xbd10a343	-0.03531195
127	0x3e25879a	0.16165009
128	0xbdceb254	-0.10092607
129	0x3d56f01e	0.052475087
130	0x3d790cdb	0.060803276
131	0x3cdc34a0	0.026880562
132	0xbd847af7	-0.06468766
133	0xbd1a98b7	-0.037743296
134	0xbcd2e505	-0.02574397
135	0xbdb265ca	-0.08710821
136	0x3c81fd38	0.015867814
137	0xbd41e49f	-0.04733717
138	0xbcbbe65d	-0.022936994
139	0x3bc49339	0.0059989956
140	0x3d555e68	0.052091986
141	0xbdc91387	-0.09818178
142	0xbd8264e2	-0.06366898
143	0xbd99cc38	-0.07509655
144	0x3cd7c18a	0.026337404
145	0xbd1848d1	-0.037178818
146	0xbc01e8e2	-0.007929059
147	0x3bafa2ce	0.005359984
148	0x3c3b267b	0.011422749
149	0xbcde280e	-0.027118709
150	0xbda09e44	-0.07842687
151	0xbd2e6252	-0.042574234
152	0x3a9938a1	0.001168985
153	0x3c0ea484	0.008706216
154	0xbd5a9e61	-0.0533737
155	0xbd78cf4e	-0.060744576
156	0x3d00883b	0.03137992
157	0x3b4dedaf	0.0031422188
158	0x3be728df	0.0070544328
159	0xbd665d2a	-0.056241192
160	0xbc6805c0	-0.014161527
161	0xbbf11536	-0.007357265
162	0xbd7783c8	-0.06042841
163	0xbd7fc095	-0.06243952
164	0xbbf5d1e9	-0.00750183
165	0xbde257f2	-0.110519305
166	0x3cf6bddd	0.03011983
167	0x3cc0bef6	0.023528557
168	0xbd181e34	-0.03713818
169	0xbd0303ea	-0.031986155
170	0x3bd6db41	0.006556899
171	0xbd49ec09	-0.049297366
172	0xbdd472d7	-0.103734665
173	0xbd0c6f54	-0.03428586
174	0x3ce4d439	0.027933227
175	0xbd95c88b	-0.07313641
176	0xbceb5809	-0.028728502
177	0x3d42661b	0.047460657
178	0xbcaa8ca3	-0.020819014
179	0xbd583189	-0.052781615
180	0xbd31520d	-0.04329114
181	0xbde85952	-0.113451615
182	0xbd1d254b	-0.038365643
183	0xbda9977b	-0.08280846
184	0x3d4ce288	0.050020725
185	0x3c6f7155	0.014614423
186	0xbca3db1e	-0.020001944
187	0x3c44c594	0.012009997
188	0x3ab2f0a2	0.0013652036
189	0xbdbe6fa5	-0.09298638
190	0xbd16894c	-0.03675203
191	0x3b16fcf5	0.0023038958
192	0xbd4e9b72	-0.050441213
193	0x3be28aab	0.006913503
194	0xbdcf987c	-0.10136506
195	0xbcf8dcfa	-0.030378807
196	0x3d02dd28	0.031949192
197	0xbdb4089b	-0.08790704
198	0xbd500330	-0.05078429
199	0x3d00a53f	0.03140759
200	0x3be461c9	0.0069696647
201	0xbd8f6f4c	-0.0700365
202	0xbdae3f87	-0.08508211
203	0xbdd213e5	-0.10257701
204	0x3cd7ab74	0.026326872
205	0xbdbfb9dc	-0.09361622
206	0xbd9d1d1e	-0.07671569
207	0xbd56aa8c	-0.05240874
208	0xbde79538	-0.11307758
209	0xbc426d10	-0.011866823
210	0xbd1bd67c	-0.038046345
211	0x3cb6ee4f	0.022330431
212	0x3c302a4a	0.01075227
213	0xbbe0e5a5	-0.0068633133
214	0xbdf1aaed	-0.1180018
215	0x3bbec82e	0.005822203
216	0xbc372e71	-0.011180506
217	0xbdaf1e87	-0.085507445
218	0xbd3c801f	-0.046020623
219	0xbbd05947	-0.006358299
220	0x3cb41aee	0.021985497
221	0xbd7c40de	-0.0615853
222	0xbd60df12	-0.054900236
223	0xbd891828	-0.066940606
224	0xbdc5cb54	-0.096579224
225	0xbbe4d6b4	-0.0069836024
226	0xbde07ab3	-0.10960903
227	0xbcf9e8d7	-0.030506535
228	0xbd4c6f69	-0.049910937
229	0x3d533d48	0.051572114
230	0x3d352da6	0.044232987
231	0xbd9cdaec	-0.076589435
232	0xbb2e32d0	-0.002658058
233	0x3d005093	0.03132684
234	0x3d2e9bff	0.04262924
235	0xbdc6a5e2	-0.096996084
236	0xbd047bf5	-0.032344777
237	0x3d113896	0.035454355
238	0xba969b8a	-0.0011490446
239	0xbd8b265f	-0.06794428
240	0xbd8c564f	-0.068523996
241	0xbd8a7124	-0.06759861
242	0xbd35b302	-0.04436017
243	0x3ccf34d2	0.025293741
244	0xbda59cf4	-0.08086577
245	0xbc7b4c80	-0.015338063
246	0xbdc3158a	-0.095255926
247	0xbd7b9081	-0.061417107
248	0x3d3c10a2	0.0459143
249	0xbd177292	-0.036974497
250	0x3d0a8504	0.03381826
251	0x3c0c13f1	0.008549676
252	0xbb4227e3	-0.0029625825
253	0x3c662af9	0.014048331
254	0xbc221355	-0.009892304
255	0x3d340fca	0.04396037

layer2.bias f4 [128]
0	0x3c7cf030	0.015438125
1	0xbc2e551a	-0.010640407
2	0x3c345e68	0.011008836
3	0xbd84d200	-0.06485367
4	0xbca88ee9	-0.020575957
5	0x3d70e17b	0.058808785
6	0x3ddb6cde	0.10714124
7	0xbd7ef9d5	-0.062249977
8	0xbccf0a7d	-0.025273556
9	0x3dbf7a77	0.0934953
10	0x3b09ffe1	0.0021057057
11	0x3e048af3	0.1294363
12	0x3d1ad18d	0.0377975
13	0x3d363921	0.044488076
14	0x3d73a914	0.059487417
15	0x3dae62e8	0.085149586
16	0xbdbd3a6b	-0.09239658
17	0xbda12641	-0.078686245
18	0xbcac2078	-0.021011576
19	0x3d941de8	0.07232267
20	0x3dd208f7	0.10255616
21	0xbd10584e	-0.035240464
22	0x3db29aa5	0.08720902
23	0xbdb4b77f	-0.088240616
24	0x3c723c54	0.014784891
25	0x3da35158	0.079744995
26	0x3d32eb42	0.04368139
27	0xbdedb720	-0.11607194
28	0x3d9673d1	0.07346309
29	0xbce056fa	-0.027385224
30	0x3e34028a	0.17579094
31	0xbb27b3ee	-0.0025589424
32	0x3c9e3fe2	0.019317571
33	0x39b9020b	0.00035287472
34	0xbaebc530	-0.0017987844
35	0x3d722588	0.059117824
36	0x3de1574b	0.11002978
37	0x3cc975b2	0.024592254
38	0x3d509bbd	0.050929774
39	0x3d881dd0	0.06646311
40	0x3d83d767	0.06437569
41	0xbd58da36	-0.052942477
42	0xbd59ea88	-0.053202182
43	0x3d22192d	0.03957479
44	0x3ca84a9e	0.020543393
45	0xbde0cbbc	-0.10976359
46	0x3d12bae2	0.035822757
47	0x3d0231b4	0.03178568
48	0x3dc7686b	0.09736713
49	0x3e0b5c8d	0.13609524
50	0xbdab6309	-0.08368499
51	0x3c71e7f8	0.014764778
52	0x3d7e435a	0.06207595
53	0x3cca732d	0.024713123
54	0x3db38a84	0.08766654
55	0x3dd51f7c	0.10406396
56	0x3e0ea6b4	0.1393078
57	0x3ccf2f75	0.025291184
58	0xbdac60ef	-0.08416926
59	0x3d34d7e2	0.044151194
60	0xbc581a71	-0.013189898
61	0x3dd19216	0.10232942
62	0x3d93c001	0.07214356
63	0x3d94cc9b	0.07265588
64	0x3d67507f	0.05647325
65	0xba9dc22d	-0.0012036018
66	0x3bcf0ee0	0.006318912
67	0xbce9534a	-0.028482098
68	0x3bbdb0a5	0.00578888
69	0x3c4c703b	0.01247793
70	0x3d3d96fd	0.04628657
71	0xbb959da2	-0.0045659104
72	0x3d6ba198	0.057527155
73	0x3d8b041b	0.067878924
74	0x3d2aabde	0.04166781
75	0x3d2bd0e4	0.04194726
76	0x3dec913a	0.11551137
77	0x3d512132	0.05105705
78	0x3dbde85b	0.09272834
79	0xbd822b97	-0.0635597
80	0xbcd42000	-0.025894165
81	0x3d6be646	0.057592653
82	0x3cf1ff77	0.02954076
83	0x3d30df9d	0.043182004
84	0x3de65d94	0.11248317
85	0xbddcf1a9	-0.107882805
86	0xbd411a99	-0.047144506
87	0x3d7ee91f	0.06223404
88	0x3d0786bb	0.033087473
89	0xbd14d63a	-0.036337115
90	0x3d982980	0.074297905
91	0x3d315810	0.043296874
92	0xbdaabba1	-0.083365686
93	0xbd129d15	-0.035794336
94	0x3ca28564	0.019838996
95	0xbdab1e36	-0.08355372
96	0xbcddd33d	-0.027078265
97	0xbb7b4eaf	-0.003834646
98	0x3dc1ebe2	0.09468819
99	0xbd753f73	-0.059874963
100	0xbb88e938	-0.0041781925
101	0xbc3a467c	-0.011369344
102	0x3d032b2d	0.032023598
103	0xbda39704	-0.07987788
104	0x3bceb0f3	0.006307715
105	0x3df3434b	0.118780695
106	0x3cbd0560	0.023073852
107	0x3d9a5bf8	0.07537073
108	0xbc816d4e	-0.01579919
109	0x3d5c1d94	0.053739145
110	0x3ceca3ef	0.028886763
111	0xbc9807c1	-0.018558385
112	0xbc56574c	-0.013082337
113	0x3b0d2f5a	0.0021543116
114	0xbd987379	-0.074439
115	0xbd876cdd	-0.06612561
116	0x3d9b4dbf	0.07583188
117	0x3d50ab3c	0.05094455
118	0x3d03a463	0.032139193
119	0x3c1a4f73	0.009418356
120	0x3d47f429	0.048816834
121	0xbd0ee746	-0.03488853
122	0xbd512fdd	-0.051071037
123	0xbd8d18b6	-0.06889479
124	0x3dab43b5	0.083625235
125	0x3ca37d89	0.01995732
126	0x3b9962ed	0.0046809823
127	0x3a9b1bb6	0.001183382

layer3.weight f4 [128, 128]
0	0x3c584a70	0.013201341
1	0xbd8c91e0	-0.06863761
2	0xbd95da60	-0.07317042
3	0xbca555f8	-0.020182595
4	0x3c2e8a28	0.010653056
5	0xbd67c1b4	-0.056581214
6	0x3d8eaacf	0.06966173
7	0xbc9c356c	-0.019068442
8	0xbdac2723	-0.08405902
9	0xbbe92140	-0.0071145594
10	0x3db1a6f7	0.08674424
11	0xbcb372e4	-0.02190537
12	0x3d8bd321	0.06827379
13	0x3d8099cd	0.06279335
14	0xbd837504	-0.06418803
15	0x3c900c20	0.017583907
16	0x3d6ffd66	0.05859127
17	0xbcc40c80	-0.023931742
18	0x3ca5f85c	0.020260029
19	0xbd0ffaab	-0.035151165
20	0xbd524a34	-0.051340297
21	0x3cc44d54	0.023962654
22	0x3ce41ab0	0.027844757
23	0xbcce6e7c	-0.025199167
24	0x3d28b602	0.0411892
25	0x3d47a086	0.04873707
26	0x3beae110	0.007167943
27	0xbd86405c	-0.06555244
28	0x3d932041	0.07183886
29	0xbd3b7af3	-0.04577155
30	0xbd9ab6ca	-0.075543955
31	0xbdaea7fe	-0.08528136
32	0x3d9eb2b9	0.077489324
33	0xbb7a20e0	-0.0038166568
34	0x3cb1508c	0.021644853
35	0x3c7a1c90	0.015265599
36	0x3cd2b370	0.025720328
37	0xbbd8bc20	-0.006614223
38	0xbd8002f8	-0.06250566
39	0x3cce1f70	0.025161475
40	0x3d045ba4	0.032313958
41	0xbdb41d0c	-0.08794603
42	0xbd158263	-0.0365013
43	0x3d2a1e1a	0.041532613
44	0x3d906079	0.07049651
45	0xbd82edf9	-0.06393046
46	0x3d0ad9e2	0.033899195
47	0xbd33953b	-0.04384349
48	0xbd2f0b39	-0.042735312
49	0xbdb32bdd	-0.08748601
50	0xbce3e69c	-0.027819924
51	0xbc25f1a8	-0.010128416
52	0x3cc875c0	0.02447021
53	0xbd0869d4	-0.03330405
54	0x3d442d5a	0.047894813
55	0x3db149f1	0.08656681
56	0x3d0394fc	0.032124504
57	0x3c946a54	0.018117107
58	0xbd69ac7e	-0.057049267
59	0xbd56a325	-0.05240168
60	0x3d8fd411	0.0702287
61	0xbd416d2f	-0.047223266
62	0x3c33bad0	0.010969833
63	0x3d77db1a	0.060511686
64	0x3cf3ae34	0.029746152
65	0xbdb4302f	-0.08798253
66	0xbca3a8ec	-0.01997801
67	0xbcdd7df2	-0.027037594
68	0xbd068cfe	-0.032849304
69	0x3cdf87ac	0.027286373
70	0xbd2cfcdc	-0.042233333
71	0xbd82faa0	-0.06395459
72	0x3d2e94b2	0.042622276
73	0x3d1264e4	0.035740748
74	0xbd903471	-0.070412524
75	0x3ca7c9c0	0.020481944
76	0xb9d46600	-0.00040511787
77	0x3d88ea37	0.06685298
78	0xbc8b2680	-0.016986132
79	0xbd52254a	-0.051305093
80	0xbd6a45b4	-0.05719538
81	0xbbe70db0	-0.007051192
82	0x3da4603b	0.08026167
83	0xbd09bd97	-0.033628073
84	0x3cdb9fa8	0.026809528
85	0x3d1e5cb2	0.03866262
86	0x3c81cab4	0.015843727
87	0xbc6bfdb0	-0.0144037455
88	0xbd9af4c3	-0.07566216
89	0xbd6063aa	-0.054782547
90	0x3da200f1	0.07910336
91	0x3d374c4e	0.044750504
92	0xbd6b70e6	-0.057480715
93	0x3c543f98	0.012954615
94	0xbba21380	-0.0049461722
95	0x3dacf76f	0.08445632
96	0x3c958c80	0.018255472
97	0xbc66b718	-0.014081739
98	0x3ce0efdc	0.027458124
99	0x3d9c3607	0.076274924
100	0xbb454780	-0.0030102432
101	0x3c084350	0.00831683
102	0xbd9eb1c1	-0.077487476
103	0x3c9ec2b0	0.019379944
104	0x3d9d128d	0.07669554
105	0x3d1642fa	0.036684968
106	0xbc46bb70	-0.0121296495
107	0x3d6d85c6	0.057988904
108	0x3c8c9b00	0.017163754
109	0xbbf6c3c0	-0.0075306594
110	0x3d9c8a7d	0.07643602
111	0x3cb31160	0.021858871
112	0x3aa592c0	0.0012632236
113	0x3b895160	0.004190609
114	0x3cbff820	0.023433745
115	0x3d4ae4d2	0.049534626
116	0xbd3b89d8	-0.045785755
117	0x3d8b38d3	0.06797948
118	0x3d9c078f	0.07618629
119	0xbd84f9ca	-0.06492956
120	0xbd740a8a	-0.059580363
121	0x3d2cd5de	0.042196147
122	0x3d585f72	0.0528254
123	0xbd85c654	-0.06531969
124	0xbca1ee98	-0.01976709
125	0x3d3faaa6	0.046793602
126	0x3b43b9c0	0.0029865354
127	0x3daba701	0.08381463
128	0x3da66ed5	0.08126608
129	0xbc44b450	-0.0120058805
130	0xbb99a3b0	-0.0046887025
131	0xbd26ec57	-0.040752735
132	0x3d46cf96	0.048537813
133	0xbcbd8754	-0.023135819
134	0xbc6aa9f0	-0.014322743
135	0x3d5d291e	0.05399429
136	0xbc9c7f08	-0.019103542
137	0xbc50ec60	-0.012751669
138	0x3c22fde0	0.009948224
139	0xbd9ce388	-0.07660586
140	0x3d4a85c2	0.049443968
141	0x3b819d10	0.003955491
142	0xbd77f5ac	-0.060537025
143	0x3d90a40f	0.07062542
144	0xbda44c5b	-0.08022376
145	0xbdaa6cfb	-0.083215676
146	0x3d48196a	0.04885236
147	0x3d6db712	0.058035918
148	0x3d693576	0.05693575
149	0x3d74eaca	0.059794225
150	0x3c55f9a8	0.013060011
151	0xbd9f0759	-0.07765073
152	0x3c84c074	0.01620505
153	0x3da90b0b	0.082540594
154	0xbd9dd890	-0.07707322
155	0xbdb4b9d3	-0.08824506
156	0x3d54ffde	0.052001826
157	0x3d8daa9f	0.06917309
158	0x3d34277a	0.04398296
159	0xbd9015e8	-0.07035428
160	0xbd9ebea1	-0.07751203
161	0xbd717036	-0.058944903
162	0xbda65f0c	-0.081235975
163	0xbdaf4924	-0.08558872
164	0x3d384ebe	0.04499697
165	0x3d95708b	0.072968565
166	0xbd236c0f	-0.039897975
167	0x3d49c1ee	0.04925721
168	0x3d1368aa	0.035988487
169	0x3d7d3f52	0.061827965
170	0x3ccc891c	0.024967723
171	0x3d111406	0.035419486
172	0xbd6cfbac	-0.0578572
173	0x3d3cea7a	0.04612205
174	0x3cb28df0	0.021796197
175	0xbdaffafa	-0.08592792
176	0xbd00a396	-0.031406008
177	0xbd994f42	-0.0748582
178	0xbd8f7e6b	-0.07006534
179	0xbd26727a	-0.040636517
180	0x3dac261d	0.08405707
181	0xbd6dc692	-0.0580507
182	0x3d9e84b9	0.077401586
183	0xbd992c24	-0.07479122
184	0xbcc9b8c8	-0.024624243
185	0xbd04f7b3	-0.032462787
186	0x3d95ce37	0.07314723
187	0x3d6d7736	0.057975017
188	0x3da6814f	0.081301324
189	0x3c357b00	0.011076689
190	0x3d93893f	0.07203912
191	0xbda9e3aa	-0.082953766
192	0xbd7130f6	-0.058884583
193	0x39227e00	0.00015496463
194	0xbce32208	-0.027726188
195	0x3d3bc552	0.045842476
196	0xbd66c00e	-0.0563355
197	0xbd8e1946	-0.06938414
198	0x3d671aea	0.05642215
199	0xbda70409	-0.081550665
200	0xbd67ec8a	-0.056622066
201	0x3cd4735c	0.025933914
202	0xbcfbb654	-0.03072659
203	0x3cf33210	0.029686958
204	0xbd8776f0	-0.066144824
205	0xbd811415	-0.063026585
206	0x3d6851a6	0.05671849
207	0xbcc72818	-0.02431111
208	0xbb9cdc00	-0.004786968
209	0x3da18a67	0.07887726
210	0x3d21be22	0.039487965
211	0x3d03d830	0.032188594
212	0x3bda3040	0.006658584
213	0xbd4a7c57	-0.049434986
214	0x3d68817e	0.05676412
215	0x3d61b8aa	0.05510775
216	0x3daec6a3	0.08533981
217	0xbd3f451c	-0.046696767
218	0xbd9e36a5	-0.07725266
219	0xbd235684	-0.03987743
220	0xbd8df4a8	-0.0693143
221	0x3ca34ba0	0.019933522
222	0x39cfad00	0.00039611012
223	0xbd36fef3	-0.044676732
224	0x3d7e7e22	0.06213201
225	0xbd35a2e3	-0.044344794
226	0x3d40a772	0.04703469
227	0x3c474078	0.012161367
228	0x3c4244b0	0.011857197
229	0x3ca9214c	0.02064576
230	0x3cae0de4	0.021246858
231	0xbd089c02	-0.033351906
232	0x3d3722fe	0.044711106
233	0x3daac20b	0.08337792
234	0xbd3e3631	-0.0464384
235	0x3cd96f94	0.026542462
236	0xbd94f3d5	-0.0727307
237	0xbd98a18e	-0.07452689
238	0x3d53871a	0.051642515
239	0x3c8dfd1c	0.017332606
240	0x3d75f0de	0.060044162
241	0x3d868825	0.06568936
242	0x3d0f6ea4	0.035017624
243	0x3cf2923c	0.029610746
244	0xbd06b6bf	-0.032889124
245	0x3da3c4f7	0.079965524
246	0x3db47539	0.08811421
247	0xbdb025e6	-0.086009786
248	0xbca90e28	-0.020636633
249	0xbbf67ec0	-0.007522434
250	0xbb212fe0	-0.0024595186
251	0xbc282058	-0.010261618
252	0xbd3ab9cc	-0.045587346
253	0xbd6c66c0	-0.057715178
254	0x3d98f6d9	0.074689575
255	0xbd79d774	-0.060996488

layer3.bias f4 [128]
0	0x3c6bbfe8	0.014389016
1	0xbda03120	-0.0782187
2	0xbce78452	-0.028261337
3	0x3d127698	0.03575763
4	0xbda7b255	-0.08188311
5	0xbdae8a38	-0.08522457
6	0xbb2b2480	-0.0026114285
7	0xbda52d4d	-0.08065281
8	0x3d2d2732	0.042273708
9	0x3d935245	0.07193426
10	0xbd39083e	-0.045173876
11	0xbc0e8520	-0.008698732
12	0x3d99287b	0.07478424
13	0x3d78d026	0.06074538
14	0xbd414b77	-0.04719111
15	0x3d8a223d	0.06744812
16	0x3d779a16	0.060449682
17	0x3d88e565	0.066843785
18	0x3d9b9815	0.07597367
19	0xbd296238	-0.041353434
20	0x3da00cd9	0.078149505
21	0xbd075e55	-0.033048946
22	0xbd136b54	-0.035991028
23	0xbd85ae2e	-0.06527363
24	0x3c001a28	0.007818736
25	0xbdb0e61d	-0.086376406
26	0x3cf09918	0.029369876
27	0x3d9f0b9d	0.07765887
28	0x3b4b38a0	0.0031009093
29	0xbc6a9930	-0.014318749
30	0xbd873f58	-0.06603879
31	0x3d6c8592	0.05774457
32	0xbcfcf1b8	-0.03087698
33	0x3dafed91	0.08590234
34	0xbd85397c	-0.06505105
35	0x3d955fa9	0.07293636
36	0xbd43dde1	-0.047819022
37	0x3bf2af30	0.007406138
38	0xbd192030	-0.037384212
39	0x3da3dca3	0.080010675
40	0x3db44711	0.08802617
41	0xbd9acf01	-0.07559014
42	0x3d5a60da	0.05331502
43	0x3d5b179a	0.053489305
44	0x3c1a39c0	0.009413183
45	0x3d5ed9a2	0.05440677
46	0x3d9a2241	0.07526065
47	0xbd755f9c	-0.059905633
48	0x3d7c48ee	0.06159299
49	0xbdaa3c46	-0.083122775
50	0xbd86cd1a	-0.06582089
51	0x3d210ae2	0.03931702
52	0x3c84c120	0.01620537
53	0xbd74c58a	-0.0597587
54	0xbd9489a5	-0.07252816
55	0x3d70bba6	0.058772705
56	0x3d685c56	0.056728683
57	0x3d6a5176	0.057206593
58	0x3d55559a	0.05208359
59	0x3be93ac0	0.0071175992
60	0xbc66b678	-0.01408159
61	0x3d17e4c2	0.037083395
62	0xbdac7518	-0.08420771
63	0x3c095c68	0.008383848
64	0x3c8d0604	0.017214783
65	0xbd9440c9	-0.07238919
66	0xbd4ba531	-0.049718086
67	0xbd84aa8f	-0.06477844
68	0x3d2bf712	0.04198367
69	0x3d84a2e9	0.06476385
70	0xbd462629	-0.048376236
71	0x3ccead00	0.025228977
72	0x3d1dcec6	0.038527273
73	0x3cf878f0	0.030331105
74	0x3d84aef7	0.064786844
75	0x3d2a0b66	0.041514777
76	0x3cc2a308	0.02375938
77	0x3aba10c0	0.0014195666
78	0xbda07b2b	-0.078359924
79	0x3d7f2cf6	0.062298737
80	0x3d50bb1a	0.050959684
81	0xbd20561a	-0.039144613
82	0xbd037f19	-0.03210363
83	0xbd04175c	-0.03224884
84	0xbd916edd	-0.071012236
85	0x3d0e3c82	0.034725673
86	0xbb0e44a0	-0.0021708384
87	0x3d3b0b76	0.045665227
88	0x3d76bbd2	0.060237713
89	0xbd043d41	-0.03228498
90	0xbd8bbcd3	-0.06823125
91	0x3d28b5c6	0.041188978
92	0xbb1a9780	-0.0023588836
93	0x3daf881d	0.085708834
94	0xbdae44d9	-0.085092254
95	0xbc8c5f8c	-0.017135404
96	0xbd78dd2c	-0.0607578
97	0x3ce5e994	0.02806548
98	0x3d845739	0.06461949
99	0x3d80666f	0.06269538
100	0xbd7d976b	-0.06191198
101	0x3d14259a	0.036168672
102	0x3d907887	0.07054239
103	0x3da37e19	0.079830356
104	0xbd569e49	-0.052397046
105	0xbcaa7b78	-0.020810828
106	0x3b5d0080	0.0033722222
107	0xbd59055e	-0.052983634
108	0x3dad1a41	0.08452273
109	0x3cbf5564	0.023356147
110	0x3d8a876b	0.0676411
111	0xbd13721f	-0.035997506
112	0x3d63d9d2	0.05562765
113	0xbd802ac8	-0.0625816
114	0xbd1368c9	-0.035988603
115	0x3d1d7796	0.038444124
116	0xbda27ac4	-0.07933572
117	0x3d67cb46	0.05659034
118	0xbcde14d8	-0.027109548
119	0xbd7a8cdc	-0.06116949
120	0x3b0fcde0	0.002194278
121	0xbcccf900	-0.025021076
122	0xbdaf9894	-0.08574024
123	0xbc9dd3d8	-0.019266054
124	0x3d7ba66e	0.061438017
125	0xbdaf5ec1	-0.08562995
126	0x3d260002	0.04052735
127	0xbd2566ec	-0.040381357

output.weight f4 [7, 128]
0	0x3cb6b009	0.022300737
1	0xbd530c12	-0.051525183
2	0x3dd20594	0.1025497
3	0xbd64d8d3	-0.055870842
4	0x3d925689	0.071454115
5	0x3dc0f384	0.09421447
6	0x3db0b286	0.08627801
7	0xbd1056d3	-0.035239052
8	0x3dcc34ed	0.09971032
9	0x3d31ae3d	0.043379057
10	0x3d0fbf4c	0.035094544
11	0x3d068ea0	0.03285086
12	0x3c0f6d9b	0.008754159
13	0xbc3726a6	-0.011178648
14	0xbde14b6a	-0.11000712
15	0xbd57013f	-0.052491423
16	0xbcad1a1d	-0.021130616
17	0xbd846d3e	-0.06466149
18	0xbd26df76	-0.040740453
19	0x3d817f1b	0.063230716
20	0xbdabf54f	-0.08396398
21	0xbdd58d7e	-0.10427378
22	0x3de0642b	0.109566055
23	0x3c8340e3	0.016022151
24	0x3e2b9031	0.16754223
25	0x3d99509d	0.07486079
26	0x3e228e83	0.15874676
27	0x3d17f966	0.03710308
28	0xbe231fdd	-0.15930124
29	0x3c1b127f	0.009464859
30	0x3e09e910	0.13467813
31	0x3cdd73a4	0.02703268
32	0x3dccc1d1	0.09997905
33	0x3cb47d4f	0.022032408
34	0xbda917ef	-0.08256518
35	0xbcbf5c5e	-0.023359474
36	0x3e27df6b	0.16393821
37	0xbd1997ce	-0.037498288
38	0xbd18c6db	-0.03729902
39	0x3d5d987a	0.05410049
40	0xbbd58b30	-0.0065168366
41	0xbc45c0cb	-0.012069891
42	0x3dd7084b	0.10499629
43	0xbbdee6d0	-0.0068024173
44	0x3ce94266	0.028474044
45	0x3d0e6cae	0.034771614
46	0xbd35afd8	-0.04435715
47	0xbc06faf0	-0.008238539
48	0x3dbaf5ad	0.0912889
49	0x3d3d5ad8	0.046229213
50	0xbd2ca2c1	-0.0421474
51	0x3d1c8d49	0.038220678
52	0xbcb30a12	-0.021855388
53	0xbd0e67bb	-0.034766894
54	0x3db83bd6	0.08995788
55	0xbbc76098	-0.006084513
56	0x3dc0da2a	0.094166115
57	0x3d90aa2d	0.070637085
58	0x3c09706a	0.008388618
59	0x3d5a24fa	0.05325792
60	0xbe390c24	-0.18071038
61	0x3dbc773d	0.092024304
62	0xbc8ceb9e	-0.017202195
63	0xbd1726ec	-0.036902353
64	0xbd883ebe	-0.06652592
65	0x3e0724e9	0.13197674
66	0x3da0cfec	0.07852158
67	0x3d340454	0.04394944
68	0x3ce29d0a	0.027662773
69	0x3dba9d5e	0.09112047
70	0x3d6f5fb5	0.058440883
71	0xbc1d114b	-0.0095866425
72	0xbbc3cf8a	-0.0059756683
73	0xbdf5f21a	-0.12009068
74	0x3d812473	0.0630578
75	0xbcbc6342	-0.022996549
76	0x3cd36041	0.025802733
77	0xbd41d8c4	-0.047325864
78	0x3d8fde93	0.070248745
79	0x3e04ebdd	0.129806
80	0xbc9eb1cf	-0.019371895
81	0xbdd489b7	-0.103778295
82	0x3ccf385a	0.025295425
83	0x3dd989ae	0.106219634
84	0x3d90e8b0	0.070756316
85	0xbd65ced6	-0.056105457
86	0xbd22c8a2	-0.03974212
87	0x3b802b4f	0.003911413
88	0xbceff2eb	-0.029290637
89	0xbd00d243	-0.03145052
90	0xbd9c8686	-0.07642846
91	0x3d6fd811	0.058555666
92	0x3d142ec9	0.03617743
93	0x3c845375	0.016153077
94	0xba47f46e	-0.00076276704
95	0xbe3acaf0	-0.18241477
96	0xbd7a3628	-0.061086804
97	0x3d38054f	0.044926938
98	0x3d8a66be	0.06757878
99	0xbe10735f	-0.1410651
100	0x3db84b9f	0.089987986
101	0x3d33f954	0.04393895
102	0x3de11620	0.10990548
103	0xbdaea7ba	-0.08528085
104	0x3deff578	0.11716741
105	0x3d7e26a7	0.06204858
106	0x3d3dd7da	0.04634843
107	0x3c697f93	0.0142516075
108	0x3dc465fd	0.09589765
109	0xbdbc92ab	-0.09207662
110	0x3d8c1c21	0.06841303
111	0x3e1c0f29	0.15240158
112	0xbe06264c	-0.13100547
113	0x3b97ecd3	0.004636386
114	0x3dfac087	0.12243753
115	0x3cfc9361	0.030831994
116	0x3d94d788	0.07267672
117	0x3dc5d43a	0.0965962
118	0x3de57151	0.11203254
119	0xbd25f16a	-0.040513434
120	0x3dc38045	0.0954595
121	0x3cb04cac	0.021520935
122	0xbcf09268	-0.029366687
123	0x3dbd04d4	0.092294365
124	0xbda8beda	-0.08239527
125	0x3de3fd60	0.11132312
126	0xbc555a3b	-0.013022001
127	0x3cbcbe89	0.023040073
128	0x3cbb15c3	0.022837525
129	0xbce39678	-0.02778171
130	0xbe01857b	-0.12648575
131	0x3c88a4b0	0.016680092
132	0x3bc17a40	0.005904466
133	0x3dab427c	0.0836229
134	0xbda73e91	-0.081662305
135	0x3daa8330	0.08325803
136	0xbcd682bc	-0.026185386
137	0x3d34df25	0.04415812
138	0xbcc6e927	-0.024281098
139	0x3cbedb79	0.023298012
140	0xbcb2bbbf	-0.02181804
141	0x3d96aac6	0.07356791
142	0x3d9c56c1	0.076337345
143	0x3c9f7b8b	0.01946809
144	0xbcdc1629	-0.026866036
145	0xbd0933b3	-0.03349657
146	0xbd2a48b5	-0.041573245
147	0x396afb94	0.00022409699
148	0x3dc2ac47	0.095055155
149	0x3b243d0f	0.0025060808
150	0x3decdb1a	0.11565228
151	0xbdd9f1a8	-0.106417954
152	0xba7549f6	-0.00093570293
153	0xbcd4252e	-0.025896635
154	0xbdc87948	-0.097887576
155	0xbc0c8fbf	-0.008579194
156	0x3df984db	0.12183543
157	0x3d338248	0.043825418
158	0xbc2ffd1d	-0.010741499
159	0xbcc0c895	-0.023533145
160	0x3cc3f3ea	0.023920018
161	0x3ca41710	0.020030528
162	0xbbbd6cac	-0.005780777
163	0x3dbc0528	0.09180671
164	0xbc6bd52f	-0.014394089
165	0xbd28120c	-0.041032836
166	0x3d6427aa	0.05570189
167	0x3dbfc351	0.093634255
168	0x3d6d8379	0.05798671
169	0xbc584d47	-0.013202018
170	0xbc9d30a8	-0.01918824
171	0xbd4753de	-0.048663966
172	0xbc7ecc37	-0.015551618
173	0x3d61b552	0.05510456
174	0x3c9ed3cd	0.019388104
175	0xbcc0648b	-0.023485443
176	0x3d6ca6bd	0.0577762
177	0x3de12c05	0.10994724
178	0xbc5464d2	-0.012963491
179	0x3d24e494	0.04025705
180	0x3db38bbc	0.087668866
181	0x3b5d46a4	0.003376403
182	0xbb946c15	-0.004529486
183	0x3d2296d0	0.039694607
184	0x3e06b72b	0.1315581
185	0xbbb857e2	-0.005625711
186	0x3c76f1e0	0.015072316
187	0x3d1291f6	0.03578373
188	0xbca94c87	-0.020666374
189	0xbd2da13b	-0.04239009
190	0xbc2fe0e2	-0.010734769
191	0x3d2ccd68	0.04218808
192	0x3c58a585	0.013223057
193	0xbd1c970a	-0.03822998
194	0xbc42e1d0	-0.011894658
195	0x3d85d0b4	0.065339476
196	0xbd47b7f8	-0.04875943
197	0xbd1e74a8	-0.03868547
198	0x3b94c808	0.004540447
199	0xbd28b47a	-0.04118774
200	0x3d6deb94	0.058085993
201	0xbd24fb0c	-0.04027848
202	0x3da893bd	0.08231304
203	0x3dbb7eae	0.091550216
204	0x3da8dbf0	0.08245075
205	0x3d0a6024	0.033783093
206	0x3cca24bd	0.024675721
207	0xbe20558d	-0.15657635
208	0xbd0d0e3b	-0.0344374
209	0x3dc0de09	0.0941735
210	0xbd3e4b28	-0.046458393
211	0xbc92fada	-0.017941881
212	0xbd2755ed	-0.04085343
213	0x3d4ee83f	0.050514456
214	0x3d098307	0.033572223
215	0xbcfaa87a	-0.030597914
216	0x3b820488	0.0039678253
217	0x3d971316	0.07376687
218	0x3da88c60	0.082298994
219	0xbc48201b	-0.012214686
220	0xbd3d3150	-0.046189606
221	0x3d4c3a13	0.04986007
222	0xbca80ef9	-0.020514952
223	0xbcfc512a	-0.03080042
224	0x3dd2e9cf	0.10298502
225	0xbce08e93	-0.027411735
226	0xbd7996a8	-0.060934693
227	0x3d89149e	0.066933855
228	0xbd68408f	-0.056702193
229	0x3dd02235	0.101627745
230	0xbdc31491	-0.09525407
231	0xbd6fb856	-0.058525406
232	0xbb3da838	-0.0028939378
233	0x3d26dc1e	0.040737264
234	0x3d7f9689	0.06239942
235	0x3d8666d5	0.065625824
236	0x3d26957c	0.040669903
237	0x3dadc8d4	0.084855705
238	0xbd756072	-0.05990643
239	0xbd06c58e	-0.032903247
240	0xbcb02031	-0.021499725
241	0xbd361e56	-0.044462524
242	0xbd156c70	-0.036480367
243	0x3c94b4f8	0.018152699
244	0x3d9b48b9	0.0758223
245	0x3d96ed6b	0.07369503
246	0xbc15bb87	-0.009138948
247	0xbcac0dee	-0.021002736
248	0x3d19fbad	0.037593532
249	0xbc8bea57	-0.017079515
250	0xbc0eba83	-0.00871146
251	0xbd2a602f	-0.041595634
252	0x3db99878	0.09062284
253	0x3dec5cfa	0.11541171
254	0x3c3b7993	0.01144256
255	0xb9881e58	-0.0002596255

output.bias f4 [7]
0	0x3d914e05	0.07094959
1	0x3d56a784	0.05240585
2	0xbdd32c75	-0.10311214
3	0xbdae8c18	-0.085228145
4	0xbd76bccf	-0.060238656
5	0xbda9a742	-0.08283855
6	0xbd28299d	-0.04105531
